{"format": "graph-model", "generatedBy": "2.6.0", "convertedBy": "TensorFlow.js Converter v3.9.0", "signature": {"inputs": {"0": {"name": "unknown:0", "dtype": "DT_FLOAT", "tensorShape": {"dim": [{"size": "1"}, {"size": "3"}, {"size": "256"}, {"size": "256"}]}}}, "outputs": {"294": {"name": "Identity:0", "dtype": "DT_FLOAT", "tensorShape": {"dim": [{"size": "1"}, {"size": "3"}, {"size": "256"}, {"size": "256"}]}}}}, "modelTopology": {"node": [{"name": "PartitionedCall/cond_19/then/_257/cond_19/transpose", "op": "Const", "attr": {"dtype": {"type": "DT_INT32"}, "value": {"tensor": {"dtype": "DT_INT32", "tensorShape": {"dim": [{"size": "4"}, {"size": "2"}]}}}}}, {"name": "PartitionedCall/Slice_1/begin", "op": "Const", "attr": {"dtype": {"type": "DT_INT32"}, "value": {"tensor": {"dtype": "DT_INT32", "tensorShape": {"dim": [{"size": "4"}]}}}}}, {"name": "PartitionedCall/strided_slice_10/stack", "op": "Const", "attr": {"dtype": {"type": "DT_INT32"}, "value": {"tensor": {"dtype": "DT_INT32", "tensorShape": {"dim": [{"size": "1"}]}}}}}, {"name": "PartitionedCall/strided_slice_10/stack_1", "op": "Const", "attr": {"dtype": {"type": "DT_INT32"}, "value": {"tensor": {"dtype": "DT_INT32", "tensorShape": {"dim": [{"size": "1"}]}}}}}, {"name": "PartitionedCall/strided_slice_10/stack_2", "op": "Const", "attr": {"value": {"tensor": {"dtype": "DT_INT32", "tensorShape": {"dim": [{"size": "1"}]}}}, "dtype": {"type": "DT_INT32"}}}, {"name": "PartitionedCall/strided_slice_11/stack", "op": "Const", "attr": {"dtype": {"type": "DT_INT32"}, "value": {"tensor": {"dtype": "DT_INT32", "tensorShape": {"dim": [{"size": "1"}]}}}}}, {"name": "PartitionedCall/strided_slice_11/stack_1", "op": "Const", "attr": {"dtype": {"type": "DT_INT32"}, "value": {"tensor": {"dtype": "DT_INT32", "tensorShape": {"dim": [{"size": "1"}]}}}}}, {"name": "PartitionedCall/strided_slice_11/stack_2", "op": "Const", "attr": {"value": {"tensor": {"dtype": "DT_INT32", "tensorShape": {"dim": [{"size": "1"}]}}}, "dtype": {"type": "DT_INT32"}}}, {"name": "PartitionedCall/sub_8/y", "op": "Const", "attr": {"value": {"tensor": {"dtype": "DT_INT32", "tensorShape": {}}}, "dtype": {"type": "DT_INT32"}}}, {"name": "PartitionedCall/sub_9/y", "op": "Const", "attr": {"dtype": {"type": "DT_INT32"}, "value": {"tensor": {"dtype": "DT_INT32", "tensorShape": {}}}}}, {"name": "PartitionedCall/strided_slice_12/stack", "op": "Const", "attr": {"value": {"tensor": {"dtype": "DT_INT32", "tensorShape": {"dim": [{"size": "1"}]}}}, "dtype": {"type": "DT_INT32"}}}, {"name": "PartitionedCall/strided_slice_12/stack_1", "op": "Const", "attr": {"dtype": {"type": "DT_INT32"}, "value": {"tensor": {"dtype": "DT_INT32", "tensorShape": {"dim": [{"size": "1"}]}}}}}, {"name": "PartitionedCall/strided_slice_12/stack_2", "op": "Const", "attr": {"dtype": {"type": "DT_INT32"}, "value": {"tensor": {"dtype": "DT_INT32", "tensorShape": {"dim": [{"size": "1"}]}}}}}, {"name": "PartitionedCall/sub_10/y", "op": "Const", "attr": {"dtype": {"type": "DT_INT32"}, "value": {"tensor": {"dtype": "DT_INT32", "tensorShape": {}}}}}, {"name": "PartitionedCall/sub_11/y", "op": "Const", "attr": {"value": {"tensor": {"dtype": "DT_INT32", "tensorShape": {}}}, "dtype": {"type": "DT_INT32"}}}, {"name": "PartitionedCall/strided_slice_9/stack", "op": "Const", "attr": {"value": {"tensor": {"dtype": "DT_INT32", "tensorShape": {"dim": [{"size": "1"}]}}}, "dtype": {"type": "DT_INT32"}}}, {"name": "PartitionedCall/strided_slice_9/stack_1", "op": "Const", "attr": {"value": {"tensor": {"dtype": "DT_INT32", "tensorShape": {"dim": [{"size": "1"}]}}}, "dtype": {"type": "DT_INT32"}}}, {"name": "PartitionedCall/strided_slice_9/stack_2", "op": "Const", "attr": {"dtype": {"type": "DT_INT32"}, "value": {"tensor": {"dtype": "DT_INT32", "tensorShape": {"dim": [{"size": "1"}]}}}}}, {"name": "PartitionedCall/mul_2/x", "op": "Const", "attr": {"dtype": {"type": "DT_INT32"}, "value": {"tensor": {"dtype": "DT_INT32", "tensorShape": {}}}}}, {"name": "PartitionedCall/strided_slice_7/stack", "op": "Const", "attr": {"value": {"tensor": {"dtype": "DT_INT32", "tensorShape": {"dim": [{"size": "1"}]}}}, "dtype": {"type": "DT_INT32"}}}, {"name": "PartitionedCall/strided_slice_7/stack_1", "op": "Const", "attr": {"dtype": {"type": "DT_INT32"}, "value": {"tensor": {"dtype": "DT_INT32", "tensorShape": {"dim": [{"size": "1"}]}}}}}, {"name": "PartitionedCall/strided_slice_7/stack_2", "op": "Const", "attr": {"dtype": {"type": "DT_INT32"}, "value": {"tensor": {"dtype": "DT_INT32", "tensorShape": {"dim": [{"size": "1"}]}}}}}, {"name": "PartitionedCall/sub_6/y", "op": "Const", "attr": {"value": {"tensor": {"dtype": "DT_INT32", "tensorShape": {}}}, "dtype": {"type": "DT_INT32"}}}, {"name": "PartitionedCall/add_53", "op": "Const", "attr": {"value": {"tensor": {"dtype": "DT_INT32", "tensorShape": {}}}, "dtype": {"type": "DT_INT32"}}}, {"name": "PartitionedCall/mul_3/x", "op": "Const", "attr": {"dtype": {"type": "DT_INT32"}, "value": {"tensor": {"dtype": "DT_INT32", "tensorShape": {}}}}}, {"name": "PartitionedCall/strided_slice_8/stack", "op": "Const", "attr": {"dtype": {"type": "DT_INT32"}, "value": {"tensor": {"dtype": "DT_INT32", "tensorShape": {"dim": [{"size": "1"}]}}}}}, {"name": "PartitionedCall/strided_slice_8/stack_1", "op": "Const", "attr": {"value": {"tensor": {"dtype": "DT_INT32", "tensorShape": {"dim": [{"size": "1"}]}}}, "dtype": {"type": "DT_INT32"}}}, {"name": "PartitionedCall/strided_slice_8/stack_2", "op": "Const", "attr": {"dtype": {"type": "DT_INT32"}, "value": {"tensor": {"dtype": "DT_INT32", "tensorShape": {"dim": [{"size": "1"}]}}}}}, {"name": "PartitionedCall/sub_7/y", "op": "Const", "attr": {"dtype": {"type": "DT_INT32"}, "value": {"tensor": {"dtype": "DT_INT32", "tensorShape": {}}}}}, {"name": "PartitionedCall/add_55", "op": "Const", "attr": {"dtype": {"type": "DT_INT32"}, "value": {"tensor": {"dtype": "DT_INT32", "tensorShape": {}}}}}, {"name": "PartitionedCall/conv2d_transpose_1/input_sizes/3", "op": "Const", "attr": {"dtype": {"type": "DT_INT32"}, "value": {"tensor": {"dtype": "DT_INT32", "tensorShape": {}}}}}, {"name": "PartitionedCall/split_22", "op": "Const", "attr": {"dtype": {"type": "DT_FLOAT"}, "value": {"tensor": {"dtype": "DT_FLOAT", "tensorShape": {"dim": [{"size": "3"}, {"size": "3"}, {"size": "16"}, {"size": "32"}]}}}}}, {"name": "PartitionedCall/Slice/begin", "op": "Const", "attr": {"value": {"tensor": {"dtype": "DT_INT32", "tensorShape": {"dim": [{"size": "4"}]}}}, "dtype": {"type": "DT_INT32"}}}, {"name": "PartitionedCall/strided_slice_3/stack", "op": "Const", "attr": {"dtype": {"type": "DT_INT32"}, "value": {"tensor": {"dtype": "DT_INT32", "tensorShape": {"dim": [{"size": "1"}]}}}}}, {"name": "PartitionedCall/strided_slice_3/stack_1", "op": "Const", "attr": {"dtype": {"type": "DT_INT32"}, "value": {"tensor": {"dtype": "DT_INT32", "tensorShape": {"dim": [{"size": "1"}]}}}}}, {"name": "PartitionedCall/strided_slice_3/stack_2", "op": "Const", "attr": {"dtype": {"type": "DT_INT32"}, "value": {"tensor": {"dtype": "DT_INT32", "tensorShape": {"dim": [{"size": "1"}]}}}}}, {"name": "PartitionedCall/strided_slice_4/stack", "op": "Const", "attr": {"value": {"tensor": {"dtype": "DT_INT32", "tensorShape": {"dim": [{"size": "1"}]}}}, "dtype": {"type": "DT_INT32"}}}, {"name": "PartitionedCall/strided_slice_4/stack_1", "op": "Const", "attr": {"value": {"tensor": {"dtype": "DT_INT32", "tensorShape": {"dim": [{"size": "1"}]}}}, "dtype": {"type": "DT_INT32"}}}, {"name": "PartitionedCall/strided_slice_4/stack_2", "op": "Const", "attr": {"value": {"tensor": {"dtype": "DT_INT32", "tensorShape": {"dim": [{"size": "1"}]}}}, "dtype": {"type": "DT_INT32"}}}, {"name": "PartitionedCall/sub_2/y", "op": "Const", "attr": {"value": {"tensor": {"dtype": "DT_INT32", "tensorShape": {}}}, "dtype": {"type": "DT_INT32"}}}, {"name": "PartitionedCall/sub_3/y", "op": "Const", "attr": {"value": {"tensor": {"dtype": "DT_INT32", "tensorShape": {}}}, "dtype": {"type": "DT_INT32"}}}, {"name": "PartitionedCall/strided_slice_5/stack", "op": "Const", "attr": {"value": {"tensor": {"dtype": "DT_INT32", "tensorShape": {"dim": [{"size": "1"}]}}}, "dtype": {"type": "DT_INT32"}}}, {"name": "PartitionedCall/strided_slice_5/stack_1", "op": "Const", "attr": {"dtype": {"type": "DT_INT32"}, "value": {"tensor": {"dtype": "DT_INT32", "tensorShape": {"dim": [{"size": "1"}]}}}}}, {"name": "PartitionedCall/strided_slice_5/stack_2", "op": "Const", "attr": {"value": {"tensor": {"dtype": "DT_INT32", "tensorShape": {"dim": [{"size": "1"}]}}}, "dtype": {"type": "DT_INT32"}}}, {"name": "PartitionedCall/sub_4/y", "op": "Const", "attr": {"value": {"tensor": {"dtype": "DT_INT32", "tensorShape": {}}}, "dtype": {"type": "DT_INT32"}}}, {"name": "PartitionedCall/sub_5/y", "op": "Const", "attr": {"value": {"tensor": {"dtype": "DT_INT32", "tensorShape": {}}}, "dtype": {"type": "DT_INT32"}}}, {"name": "PartitionedCall/strided_slice_2/stack", "op": "Const", "attr": {"dtype": {"type": "DT_INT32"}, "value": {"tensor": {"dtype": "DT_INT32", "tensorShape": {"dim": [{"size": "1"}]}}}}}, {"name": "PartitionedCall/strided_slice_2/stack_1", "op": "Const", "attr": {"dtype": {"type": "DT_INT32"}, "value": {"tensor": {"dtype": "DT_INT32", "tensorShape": {"dim": [{"size": "1"}]}}}}}, {"name": "PartitionedCall/strided_slice_2/stack_2", "op": "Const", "attr": {"dtype": {"type": "DT_INT32"}, "value": {"tensor": {"dtype": "DT_INT32", "tensorShape": {"dim": [{"size": "1"}]}}}}}, {"name": "PartitionedCall/mul/x", "op": "Const", "attr": {"value": {"tensor": {"dtype": "DT_INT32", "tensorShape": {}}}, "dtype": {"type": "DT_INT32"}}}, {"name": "PartitionedCall/strided_slice/stack", "op": "Const", "attr": {"dtype": {"type": "DT_INT32"}, "value": {"tensor": {"dtype": "DT_INT32", "tensorShape": {"dim": [{"size": "1"}]}}}}}, {"name": "PartitionedCall/strided_slice/stack_1", "op": "Const", "attr": {"value": {"tensor": {"dtype": "DT_INT32", "tensorShape": {"dim": [{"size": "1"}]}}}, "dtype": {"type": "DT_INT32"}}}, {"name": "PartitionedCall/strided_slice/stack_2", "op": "Const", "attr": {"value": {"tensor": {"dtype": "DT_INT32", "tensorShape": {"dim": [{"size": "1"}]}}}, "dtype": {"type": "DT_INT32"}}}, {"name": "PartitionedCall/sub/y", "op": "Const", "attr": {"dtype": {"type": "DT_INT32"}, "value": {"tensor": {"dtype": "DT_INT32", "tensorShape": {}}}}}, {"name": "PartitionedCall/add_48", "op": "Const", "attr": {"dtype": {"type": "DT_INT32"}, "value": {"tensor": {"dtype": "DT_INT32", "tensorShape": {}}}}}, {"name": "PartitionedCall/mul_1/x", "op": "Const", "attr": {"value": {"tensor": {"dtype": "DT_INT32", "tensorShape": {}}}, "dtype": {"type": "DT_INT32"}}}, {"name": "PartitionedCall/strided_slice_1/stack", "op": "Const", "attr": {"value": {"tensor": {"dtype": "DT_INT32", "tensorShape": {"dim": [{"size": "1"}]}}}, "dtype": {"type": "DT_INT32"}}}, {"name": "PartitionedCall/strided_slice_1/stack_1", "op": "Const", "attr": {"dtype": {"type": "DT_INT32"}, "value": {"tensor": {"dtype": "DT_INT32", "tensorShape": {"dim": [{"size": "1"}]}}}}}, {"name": "PartitionedCall/strided_slice_1/stack_2", "op": "Const", "attr": {"value": {"tensor": {"dtype": "DT_INT32", "tensorShape": {"dim": [{"size": "1"}]}}}, "dtype": {"type": "DT_INT32"}}}, {"name": "PartitionedCall/sub_1/y", "op": "Const", "attr": {"value": {"tensor": {"dtype": "DT_INT32", "tensorShape": {}}}, "dtype": {"type": "DT_INT32"}}}, {"name": "PartitionedCall/add_50", "op": "Const", "attr": {"value": {"tensor": {"dtype": "DT_INT32", "tensorShape": {}}}, "dtype": {"type": "DT_INT32"}}}, {"name": "PartitionedCall/conv2d_transpose/input_sizes/3", "op": "Const", "attr": {"value": {"tensor": {"dtype": "DT_INT32", "tensorShape": {}}}, "dtype": {"type": "DT_INT32"}}}, {"name": "PartitionedCall/split_21", "op": "Const", "attr": {"dtype": {"type": "DT_FLOAT"}, "value": {"tensor": {"dtype": "DT_FLOAT", "tensorShape": {"dim": [{"size": "3"}, {"size": "3"}, {"size": "32"}, {"size": "64"}]}}}}}, {"name": "PartitionedCall/cond_18/then/_248/cond_18/transpose", "op": "Const", "attr": {"dtype": {"type": "DT_INT32"}, "value": {"tensor": {"dtype": "DT_INT32", "tensorShape": {"dim": [{"size": "4"}, {"size": "2"}]}}}}}, {"name": "PartitionedCall/cond_17/then/_239/cond_17/transpose", "op": "Const", "attr": {"value": {"tensor": {"dtype": "DT_INT32", "tensorShape": {"dim": [{"size": "4"}, {"size": "2"}]}}}, "dtype": {"type": "DT_INT32"}}}, {"name": "PartitionedCall/cond_16/then/_230/cond_16/transpose", "op": "Const", "attr": {"dtype": {"type": "DT_INT32"}, "value": {"tensor": {"dtype": "DT_INT32", "tensorShape": {"dim": [{"size": "4"}, {"size": "2"}]}}}}}, {"name": "PartitionedCall/cond_15/then/_221/cond_15/transpose", "op": "Const", "attr": {"value": {"tensor": {"dtype": "DT_INT32", "tensorShape": {"dim": [{"size": "4"}, {"size": "2"}]}}}, "dtype": {"type": "DT_INT32"}}}, {"name": "PartitionedCall/cond_14/then/_212/cond_14/transpose", "op": "Const", "attr": {"value": {"tensor": {"dtype": "DT_INT32", "tensorShape": {"dim": [{"size": "4"}, {"size": "2"}]}}}, "dtype": {"type": "DT_INT32"}}}, {"name": "PartitionedCall/cond_13/then/_203/cond_13/transpose", "op": "Const", "attr": {"dtype": {"type": "DT_INT32"}, "value": {"tensor": {"dtype": "DT_INT32", "tensorShape": {"dim": [{"size": "4"}, {"size": "2"}]}}}}}, {"name": "PartitionedCall/cond_12/then/_194/cond_12/transpose", "op": "Const", "attr": {"dtype": {"type": "DT_INT32"}, "value": {"tensor": {"dtype": "DT_INT32", "tensorShape": {"dim": [{"size": "4"}, {"size": "2"}]}}}}}, {"name": "PartitionedCall/cond_11/then/_185/cond_11/transpose", "op": "Const", "attr": {"value": {"tensor": {"dtype": "DT_INT32", "tensorShape": {"dim": [{"size": "4"}, {"size": "2"}]}}}, "dtype": {"type": "DT_INT32"}}}, {"name": "PartitionedCall/cond_10/then/_176/cond_10/transpose", "op": "Const", "attr": {"value": {"tensor": {"dtype": "DT_INT32", "tensorShape": {"dim": [{"size": "4"}, {"size": "2"}]}}}, "dtype": {"type": "DT_INT32"}}}, {"name": "PartitionedCall/cond_9/then/_167/cond_9/transpose", "op": "Const", "attr": {"value": {"tensor": {"dtype": "DT_INT32", "tensorShape": {"dim": [{"size": "4"}, {"size": "2"}]}}}, "dtype": {"type": "DT_INT32"}}}, {"name": "PartitionedCall/cond_8/then/_158/cond_8/transpose", "op": "Const", "attr": {"dtype": {"type": "DT_INT32"}, "value": {"tensor": {"dtype": "DT_INT32", "tensorShape": {"dim": [{"size": "4"}, {"size": "2"}]}}}}}, {"name": "PartitionedCall/cond_7/then/_149/cond_7/transpose", "op": "Const", "attr": {"dtype": {"type": "DT_INT32"}, "value": {"tensor": {"dtype": "DT_INT32", "tensorShape": {"dim": [{"size": "4"}, {"size": "2"}]}}}}}, {"name": "PartitionedCall/cond_6/then/_140/cond_6/transpose", "op": "Const", "attr": {"value": {"tensor": {"dtype": "DT_INT32", "tensorShape": {"dim": [{"size": "4"}, {"size": "2"}]}}}, "dtype": {"type": "DT_INT32"}}}, {"name": "PartitionedCall/cond_5/then/_131/cond_5/transpose", "op": "Const", "attr": {"dtype": {"type": "DT_INT32"}, "value": {"tensor": {"dtype": "DT_INT32", "tensorShape": {"dim": [{"size": "4"}, {"size": "2"}]}}}}}, {"name": "PartitionedCall/cond_4/then/_122/cond_4/transpose", "op": "Const", "attr": {"dtype": {"type": "DT_INT32"}, "value": {"tensor": {"dtype": "DT_INT32", "tensorShape": {"dim": [{"size": "4"}, {"size": "2"}]}}}}}, {"name": "PartitionedCall/cond_3/then/_113/cond_3/transpose", "op": "Const", "attr": {"value": {"tensor": {"dtype": "DT_INT32", "tensorShape": {"dim": [{"size": "4"}, {"size": "2"}]}}}, "dtype": {"type": "DT_INT32"}}}, {"name": "PartitionedCall/cond_2/then/_104/cond_2/transpose", "op": "Const", "attr": {"value": {"tensor": {"dtype": "DT_INT32", "tensorShape": {"dim": [{"size": "4"}, {"size": "2"}]}}}, "dtype": {"type": "DT_INT32"}}}, {"name": "PartitionedCall/cond_1/then/_95/cond_1/transpose", "op": "Const", "attr": {"dtype": {"type": "DT_INT32"}, "value": {"tensor": {"dtype": "DT_INT32", "tensorShape": {"dim": [{"size": "4"}, {"size": "2"}]}}}}}, {"name": "PartitionedCall/cond/then/_86/cond/transpose", "op": "Const", "attr": {"dtype": {"type": "DT_INT32"}, "value": {"tensor": {"dtype": "DT_INT32", "tensorShape": {"dim": [{"size": "4"}, {"size": "2"}]}}}}}, {"name": "PartitionedCall/clip_by_value/Minimum/y", "op": "Const", "attr": {"dtype": {"type": "DT_FLOAT"}, "value": {"tensor": {"dtype": "DT_FLOAT", "tensorShape": {}}}}}, {"name": "PartitionedCall/clip_by_value/y", "op": "Const", "attr": {"value": {"tensor": {"dtype": "DT_FLOAT", "tensorShape": {}}}, "dtype": {"type": "DT_FLOAT"}}}, {"name": "PartitionedCall/Const_2", "op": "Const", "attr": {"value": {"tensor": {"dtype": "DT_INT32", "tensorShape": {"dim": [{"size": "8"}]}}}, "dtype": {"type": "DT_INT32"}}}, {"name": "PartitionedCall/All", "op": "Const", "attr": {"dtype": {"type": "DT_BOOL"}, "value": {"tensor": {"dtype": "DT_BOOL", "tensorShape": {}}}}}, {"name": "PartitionedCall/transpose_1/perm", "op": "Const", "attr": {"dtype": {"type": "DT_INT32"}, "value": {"tensor": {"dtype": "DT_INT32", "tensorShape": {"dim": [{"size": "4"}]}}}}}, {"name": "PartitionedCall/split", "op": "Const", "attr": {"dtype": {"type": "DT_FLOAT"}, "value": {"tensor": {"dtype": "DT_FLOAT", "tensorShape": {"dim": [{"size": "7"}, {"size": "7"}, {"size": "3"}, {"size": "16"}]}}}}}, {"name": "unknown_1", "op": "Const", "attr": {"value": {"tensor": {"dtype": "DT_FLOAT", "tensorShape": {"dim": [{"size": "16"}]}}}, "dtype": {"type": "DT_FLOAT"}}}, {"name": "PartitionedCall/transpose_2/perm", "op": "Const", "attr": {"value": {"tensor": {"dtype": "DT_INT32", "tensorShape": {"dim": [{"size": "4"}]}}}, "dtype": {"type": "DT_INT32"}}}, {"name": "PartitionedCall/moments/mean/reduction_indices", "op": "Const", "attr": {"value": {"tensor": {"dtype": "DT_INT32", "tensorShape": {"dim": [{"size": "2"}]}}}, "dtype": {"type": "DT_INT32"}}}, {"name": "PartitionedCall/moments/variance/reduction_indices", "op": "Const", "attr": {"dtype": {"type": "DT_INT32"}, "value": {"tensor": {"dtype": "DT_INT32", "tensorShape": {"dim": [{"size": "2"}]}}}}}, {"name": "PartitionedCall/onnx_tf_prefix_instancenorm/add/y", "op": "Const", "attr": {"value": {"tensor": {"dtype": "DT_FLOAT", "tensorShape": {}}}, "dtype": {"type": "DT_FLOAT"}}}, {"name": "PartitionedCall/Const_6", "op": "Const", "attr": {"dtype": {"type": "DT_INT32"}, "value": {"tensor": {"dtype": "DT_INT32", "tensorShape": {"dim": [{"size": "4"}, {"size": "2"}]}}}}}, {"name": "PartitionedCall/transpose_4/perm", "op": "Const", "attr": {"dtype": {"type": "DT_INT32"}, "value": {"tensor": {"dtype": "DT_INT32", "tensorShape": {"dim": [{"size": "4"}]}}}}}, {"name": "PartitionedCall/split_1", "op": "Const", "attr": {"dtype": {"type": "DT_FLOAT"}, "value": {"tensor": {"dtype": "DT_FLOAT", "tensorShape": {"dim": [{"size": "3"}, {"size": "3"}, {"size": "16"}, {"size": "32"}]}}}}}, {"name": "unknown_3", "op": "Const", "attr": {"value": {"tensor": {"dtype": "DT_FLOAT", "tensorShape": {"dim": [{"size": "32"}]}}}, "dtype": {"type": "DT_FLOAT"}}}, {"name": "PartitionedCall/transpose_5/perm", "op": "Const", "attr": {"value": {"tensor": {"dtype": "DT_INT32", "tensorShape": {"dim": [{"size": "4"}]}}}, "dtype": {"type": "DT_INT32"}}}, {"name": "PartitionedCall/moments_1/mean/reduction_indices", "op": "Const", "attr": {"dtype": {"type": "DT_INT32"}, "value": {"tensor": {"dtype": "DT_INT32", "tensorShape": {"dim": [{"size": "2"}]}}}}}, {"name": "PartitionedCall/moments_1/variance/reduction_indices", "op": "Const", "attr": {"value": {"tensor": {"dtype": "DT_INT32", "tensorShape": {"dim": [{"size": "2"}]}}}, "dtype": {"type": "DT_INT32"}}}, {"name": "PartitionedCall/onnx_tf_prefix_instancenorm_1/add/y", "op": "Const", "attr": {"value": {"tensor": {"dtype": "DT_FLOAT", "tensorShape": {}}}, "dtype": {"type": "DT_FLOAT"}}}, {"name": "PartitionedCall/Const_9", "op": "Const", "attr": {"dtype": {"type": "DT_INT32"}, "value": {"tensor": {"dtype": "DT_INT32", "tensorShape": {"dim": [{"size": "4"}, {"size": "2"}]}}}}}, {"name": "PartitionedCall/transpose_7/perm", "op": "Const", "attr": {"value": {"tensor": {"dtype": "DT_INT32", "tensorShape": {"dim": [{"size": "4"}]}}}, "dtype": {"type": "DT_INT32"}}}, {"name": "PartitionedCall/split_2", "op": "Const", "attr": {"dtype": {"type": "DT_FLOAT"}, "value": {"tensor": {"dtype": "DT_FLOAT", "tensorShape": {"dim": [{"size": "3"}, {"size": "3"}, {"size": "32"}, {"size": "64"}]}}}}}, {"name": "unknown_5", "op": "Const", "attr": {"dtype": {"type": "DT_FLOAT"}, "value": {"tensor": {"dtype": "DT_FLOAT", "tensorShape": {"dim": [{"size": "64"}]}}}}}, {"name": "PartitionedCall/transpose_8/perm", "op": "Const", "attr": {"value": {"tensor": {"dtype": "DT_INT32", "tensorShape": {"dim": [{"size": "4"}]}}}, "dtype": {"type": "DT_INT32"}}}, {"name": "PartitionedCall/moments_2/mean/reduction_indices", "op": "Const", "attr": {"dtype": {"type": "DT_INT32"}, "value": {"tensor": {"dtype": "DT_INT32", "tensorShape": {"dim": [{"size": "2"}]}}}}}, {"name": "PartitionedCall/moments_2/variance/reduction_indices", "op": "Const", "attr": {"dtype": {"type": "DT_INT32"}, "value": {"tensor": {"dtype": "DT_INT32", "tensorShape": {"dim": [{"size": "2"}]}}}}}, {"name": "PartitionedCall/onnx_tf_prefix_instancenorm_2/add/y", "op": "Const", "attr": {"value": {"tensor": {"dtype": "DT_FLOAT", "tensorShape": {}}}, "dtype": {"type": "DT_FLOAT"}}}, {"name": "PartitionedCall/Const_12", "op": "Const", "attr": {"dtype": {"type": "DT_INT32"}, "value": {"tensor": {"dtype": "DT_INT32", "tensorShape": {"dim": [{"size": "8"}]}}}}}, {"name": "PartitionedCall/All_1", "op": "Const", "attr": {"value": {"tensor": {"dtype": "DT_BOOL", "tensorShape": {}}}, "dtype": {"type": "DT_BOOL"}}}, {"name": "PartitionedCall/transpose_10/perm", "op": "Const", "attr": {"dtype": {"type": "DT_INT32"}, "value": {"tensor": {"dtype": "DT_INT32", "tensorShape": {"dim": [{"size": "4"}]}}}}}, {"name": "PartitionedCall/Reshape_6", "op": "Const", "attr": {"value": {"tensor": {"dtype": "DT_FLOAT", "tensorShape": {"dim": [{"size": "3"}, {"size": "3"}, {"size": "64"}, {"size": "1"}]}}}, "dtype": {"type": "DT_FLOAT"}}}, {"name": "unknown_7", "op": "Const", "attr": {"dtype": {"type": "DT_FLOAT"}, "value": {"tensor": {"dtype": "DT_FLOAT", "tensorShape": {"dim": [{"size": "64"}]}}}}}, {"name": "PartitionedCall/transpose_11/perm", "op": "Const", "attr": {"dtype": {"type": "DT_INT32"}, "value": {"tensor": {"dtype": "DT_INT32", "tensorShape": {"dim": [{"size": "4"}]}}}}}, {"name": "PartitionedCall/moments_3/mean/reduction_indices", "op": "Const", "attr": {"value": {"tensor": {"dtype": "DT_INT32", "tensorShape": {"dim": [{"size": "2"}]}}}, "dtype": {"type": "DT_INT32"}}}, {"name": "PartitionedCall/moments_3/variance/reduction_indices", "op": "Const", "attr": {"dtype": {"type": "DT_INT32"}, "value": {"tensor": {"dtype": "DT_INT32", "tensorShape": {"dim": [{"size": "2"}]}}}}}, {"name": "PartitionedCall/onnx_tf_prefix_instancenorm_3/add/y", "op": "Const", "attr": {"value": {"tensor": {"dtype": "DT_FLOAT", "tensorShape": {}}}, "dtype": {"type": "DT_FLOAT"}}}, {"name": "PartitionedCall/transpose_13/perm", "op": "Const", "attr": {"dtype": {"type": "DT_INT32"}, "value": {"tensor": {"dtype": "DT_INT32", "tensorShape": {"dim": [{"size": "4"}]}}}}}, {"name": "PartitionedCall/split_3", "op": "Const", "attr": {"value": {"tensor": {"dtype": "DT_FLOAT", "tensorShape": {"dim": [{"size": "1"}, {"size": "1"}, {"size": "64"}, {"size": "64"}]}}}, "dtype": {"type": "DT_FLOAT"}}}, {"name": "unknown_9", "op": "Const", "attr": {"value": {"tensor": {"dtype": "DT_FLOAT", "tensorShape": {"dim": [{"size": "64"}]}}}, "dtype": {"type": "DT_FLOAT"}}}, {"name": "PartitionedCall/transpose_14/perm", "op": "Const", "attr": {"dtype": {"type": "DT_INT32"}, "value": {"tensor": {"dtype": "DT_INT32", "tensorShape": {"dim": [{"size": "4"}]}}}}}, {"name": "PartitionedCall/moments_4/mean/reduction_indices", "op": "Const", "attr": {"dtype": {"type": "DT_INT32"}, "value": {"tensor": {"dtype": "DT_INT32", "tensorShape": {"dim": [{"size": "2"}]}}}}}, {"name": "PartitionedCall/moments_4/variance/reduction_indices", "op": "Const", "attr": {"dtype": {"type": "DT_INT32"}, "value": {"tensor": {"dtype": "DT_INT32", "tensorShape": {"dim": [{"size": "2"}]}}}}}, {"name": "PartitionedCall/onnx_tf_prefix_instancenorm_4/add/y", "op": "Const", "attr": {"dtype": {"type": "DT_FLOAT"}, "value": {"tensor": {"dtype": "DT_FLOAT", "tensorShape": {}}}}}, {"name": "PartitionedCall/Const_18", "op": "Const", "attr": {"dtype": {"type": "DT_INT32"}, "value": {"tensor": {"dtype": "DT_INT32", "tensorShape": {"dim": [{"size": "8"}]}}}}}, {"name": "PartitionedCall/All_2", "op": "Const", "attr": {"dtype": {"type": "DT_BOOL"}, "value": {"tensor": {"dtype": "DT_BOOL", "tensorShape": {}}}}}, {"name": "PartitionedCall/transpose_16/perm", "op": "Const", "attr": {"dtype": {"type": "DT_INT32"}, "value": {"tensor": {"dtype": "DT_INT32", "tensorShape": {"dim": [{"size": "4"}]}}}}}, {"name": "PartitionedCall/Reshape_11", "op": "Const", "attr": {"dtype": {"type": "DT_FLOAT"}, "value": {"tensor": {"dtype": "DT_FLOAT", "tensorShape": {"dim": [{"size": "3"}, {"size": "3"}, {"size": "64"}, {"size": "1"}]}}}}}, {"name": "unknown_11", "op": "Const", "attr": {"dtype": {"type": "DT_FLOAT"}, "value": {"tensor": {"dtype": "DT_FLOAT", "tensorShape": {"dim": [{"size": "64"}]}}}}}, {"name": "PartitionedCall/transpose_17/perm", "op": "Const", "attr": {"value": {"tensor": {"dtype": "DT_INT32", "tensorShape": {"dim": [{"size": "4"}]}}}, "dtype": {"type": "DT_INT32"}}}, {"name": "PartitionedCall/moments_5/mean/reduction_indices", "op": "Const", "attr": {"value": {"tensor": {"dtype": "DT_INT32", "tensorShape": {"dim": [{"size": "2"}]}}}, "dtype": {"type": "DT_INT32"}}}, {"name": "PartitionedCall/moments_5/variance/reduction_indices", "op": "Const", "attr": {"dtype": {"type": "DT_INT32"}, "value": {"tensor": {"dtype": "DT_INT32", "tensorShape": {"dim": [{"size": "2"}]}}}}}, {"name": "PartitionedCall/onnx_tf_prefix_instancenorm_5/add/y", "op": "Const", "attr": {"value": {"tensor": {"dtype": "DT_FLOAT", "tensorShape": {}}}, "dtype": {"type": "DT_FLOAT"}}}, {"name": "PartitionedCall/transpose_19/perm", "op": "Const", "attr": {"dtype": {"type": "DT_INT32"}, "value": {"tensor": {"dtype": "DT_INT32", "tensorShape": {"dim": [{"size": "4"}]}}}}}, {"name": "PartitionedCall/split_4", "op": "Const", "attr": {"dtype": {"type": "DT_FLOAT"}, "value": {"tensor": {"dtype": "DT_FLOAT", "tensorShape": {"dim": [{"size": "1"}, {"size": "1"}, {"size": "64"}, {"size": "64"}]}}}}}, {"name": "unknown_13", "op": "Const", "attr": {"value": {"tensor": {"dtype": "DT_FLOAT", "tensorShape": {"dim": [{"size": "64"}]}}}, "dtype": {"type": "DT_FLOAT"}}}, {"name": "PartitionedCall/transpose_20/perm", "op": "Const", "attr": {"value": {"tensor": {"dtype": "DT_INT32", "tensorShape": {"dim": [{"size": "4"}]}}}, "dtype": {"type": "DT_INT32"}}}, {"name": "PartitionedCall/moments_6/mean/reduction_indices", "op": "Const", "attr": {"dtype": {"type": "DT_INT32"}, "value": {"tensor": {"dtype": "DT_INT32", "tensorShape": {"dim": [{"size": "2"}]}}}}}, {"name": "PartitionedCall/moments_6/variance/reduction_indices", "op": "Const", "attr": {"value": {"tensor": {"dtype": "DT_INT32", "tensorShape": {"dim": [{"size": "2"}]}}}, "dtype": {"type": "DT_INT32"}}}, {"name": "PartitionedCall/onnx_tf_prefix_instancenorm_6/add/y", "op": "Const", "attr": {"dtype": {"type": "DT_FLOAT"}, "value": {"tensor": {"dtype": "DT_FLOAT", "tensorShape": {}}}}}, {"name": "PartitionedCall/Const_24", "op": "Const", "attr": {"value": {"tensor": {"dtype": "DT_INT32", "tensorShape": {"dim": [{"size": "8"}]}}}, "dtype": {"type": "DT_INT32"}}}, {"name": "PartitionedCall/All_3", "op": "Const", "attr": {"value": {"tensor": {"dtype": "DT_BOOL", "tensorShape": {}}}, "dtype": {"type": "DT_BOOL"}}}, {"name": "PartitionedCall/transpose_22/perm", "op": "Const", "attr": {"value": {"tensor": {"dtype": "DT_INT32", "tensorShape": {"dim": [{"size": "4"}]}}}, "dtype": {"type": "DT_INT32"}}}, {"name": "PartitionedCall/Reshape_16", "op": "Const", "attr": {"value": {"tensor": {"dtype": "DT_FLOAT", "tensorShape": {"dim": [{"size": "3"}, {"size": "3"}, {"size": "64"}, {"size": "1"}]}}}, "dtype": {"type": "DT_FLOAT"}}}, {"name": "unknown_15", "op": "Const", "attr": {"value": {"tensor": {"dtype": "DT_FLOAT", "tensorShape": {"dim": [{"size": "64"}]}}}, "dtype": {"type": "DT_FLOAT"}}}, {"name": "PartitionedCall/transpose_23/perm", "op": "Const", "attr": {"value": {"tensor": {"dtype": "DT_INT32", "tensorShape": {"dim": [{"size": "4"}]}}}, "dtype": {"type": "DT_INT32"}}}, {"name": "PartitionedCall/moments_7/mean/reduction_indices", "op": "Const", "attr": {"value": {"tensor": {"dtype": "DT_INT32", "tensorShape": {"dim": [{"size": "2"}]}}}, "dtype": {"type": "DT_INT32"}}}, {"name": "PartitionedCall/moments_7/variance/reduction_indices", "op": "Const", "attr": {"dtype": {"type": "DT_INT32"}, "value": {"tensor": {"dtype": "DT_INT32", "tensorShape": {"dim": [{"size": "2"}]}}}}}, {"name": "PartitionedCall/onnx_tf_prefix_instancenorm_7/add/y", "op": "Const", "attr": {"value": {"tensor": {"dtype": "DT_FLOAT", "tensorShape": {}}}, "dtype": {"type": "DT_FLOAT"}}}, {"name": "PartitionedCall/transpose_25/perm", "op": "Const", "attr": {"value": {"tensor": {"dtype": "DT_INT32", "tensorShape": {"dim": [{"size": "4"}]}}}, "dtype": {"type": "DT_INT32"}}}, {"name": "PartitionedCall/split_5", "op": "Const", "attr": {"dtype": {"type": "DT_FLOAT"}, "value": {"tensor": {"dtype": "DT_FLOAT", "tensorShape": {"dim": [{"size": "1"}, {"size": "1"}, {"size": "64"}, {"size": "64"}]}}}}}, {"name": "unknown_17", "op": "Const", "attr": {"dtype": {"type": "DT_FLOAT"}, "value": {"tensor": {"dtype": "DT_FLOAT", "tensorShape": {"dim": [{"size": "64"}]}}}}}, {"name": "PartitionedCall/transpose_26/perm", "op": "Const", "attr": {"dtype": {"type": "DT_INT32"}, "value": {"tensor": {"dtype": "DT_INT32", "tensorShape": {"dim": [{"size": "4"}]}}}}}, {"name": "PartitionedCall/moments_8/mean/reduction_indices", "op": "Const", "attr": {"value": {"tensor": {"dtype": "DT_INT32", "tensorShape": {"dim": [{"size": "2"}]}}}, "dtype": {"type": "DT_INT32"}}}, {"name": "PartitionedCall/moments_8/variance/reduction_indices", "op": "Const", "attr": {"value": {"tensor": {"dtype": "DT_INT32", "tensorShape": {"dim": [{"size": "2"}]}}}, "dtype": {"type": "DT_INT32"}}}, {"name": "PartitionedCall/onnx_tf_prefix_instancenorm_8/add/y", "op": "Const", "attr": {"dtype": {"type": "DT_FLOAT"}, "value": {"tensor": {"dtype": "DT_FLOAT", "tensorShape": {}}}}}, {"name": "PartitionedCall/Const_30", "op": "Const", "attr": {"dtype": {"type": "DT_INT32"}, "value": {"tensor": {"dtype": "DT_INT32", "tensorShape": {"dim": [{"size": "8"}]}}}}}, {"name": "PartitionedCall/All_4", "op": "Const", "attr": {"dtype": {"type": "DT_BOOL"}, "value": {"tensor": {"dtype": "DT_BOOL", "tensorShape": {}}}}}, {"name": "PartitionedCall/transpose_28/perm", "op": "Const", "attr": {"value": {"tensor": {"dtype": "DT_INT32", "tensorShape": {"dim": [{"size": "4"}]}}}, "dtype": {"type": "DT_INT32"}}}, {"name": "PartitionedCall/Reshape_21", "op": "Const", "attr": {"value": {"tensor": {"dtype": "DT_FLOAT", "tensorShape": {"dim": [{"size": "3"}, {"size": "3"}, {"size": "64"}, {"size": "1"}]}}}, "dtype": {"type": "DT_FLOAT"}}}, {"name": "unknown_19", "op": "Const", "attr": {"dtype": {"type": "DT_FLOAT"}, "value": {"tensor": {"dtype": "DT_FLOAT", "tensorShape": {"dim": [{"size": "64"}]}}}}}, {"name": "PartitionedCall/transpose_29/perm", "op": "Const", "attr": {"value": {"tensor": {"dtype": "DT_INT32", "tensorShape": {"dim": [{"size": "4"}]}}}, "dtype": {"type": "DT_INT32"}}}, {"name": "PartitionedCall/moments_9/mean/reduction_indices", "op": "Const", "attr": {"dtype": {"type": "DT_INT32"}, "value": {"tensor": {"dtype": "DT_INT32", "tensorShape": {"dim": [{"size": "2"}]}}}}}, {"name": "PartitionedCall/moments_9/variance/reduction_indices", "op": "Const", "attr": {"value": {"tensor": {"dtype": "DT_INT32", "tensorShape": {"dim": [{"size": "2"}]}}}, "dtype": {"type": "DT_INT32"}}}, {"name": "PartitionedCall/onnx_tf_prefix_instancenorm_9/add/y", "op": "Const", "attr": {"value": {"tensor": {"dtype": "DT_FLOAT", "tensorShape": {}}}, "dtype": {"type": "DT_FLOAT"}}}, {"name": "PartitionedCall/transpose_31/perm", "op": "Const", "attr": {"value": {"tensor": {"dtype": "DT_INT32", "tensorShape": {"dim": [{"size": "4"}]}}}, "dtype": {"type": "DT_INT32"}}}, {"name": "PartitionedCall/split_6", "op": "Const", "attr": {"value": {"tensor": {"dtype": "DT_FLOAT", "tensorShape": {"dim": [{"size": "1"}, {"size": "1"}, {"size": "64"}, {"size": "64"}]}}}, "dtype": {"type": "DT_FLOAT"}}}, {"name": "unknown_21", "op": "Const", "attr": {"dtype": {"type": "DT_FLOAT"}, "value": {"tensor": {"dtype": "DT_FLOAT", "tensorShape": {"dim": [{"size": "64"}]}}}}}, {"name": "PartitionedCall/transpose_32/perm", "op": "Const", "attr": {"dtype": {"type": "DT_INT32"}, "value": {"tensor": {"dtype": "DT_INT32", "tensorShape": {"dim": [{"size": "4"}]}}}}}, {"name": "PartitionedCall/moments_10/mean/reduction_indices", "op": "Const", "attr": {"dtype": {"type": "DT_INT32"}, "value": {"tensor": {"dtype": "DT_INT32", "tensorShape": {"dim": [{"size": "2"}]}}}}}, {"name": "PartitionedCall/moments_10/variance/reduction_indices", "op": "Const", "attr": {"dtype": {"type": "DT_INT32"}, "value": {"tensor": {"dtype": "DT_INT32", "tensorShape": {"dim": [{"size": "2"}]}}}}}, {"name": "PartitionedCall/onnx_tf_prefix_instancenorm_10/add/y", "op": "Const", "attr": {"value": {"tensor": {"dtype": "DT_FLOAT", "tensorShape": {}}}, "dtype": {"type": "DT_FLOAT"}}}, {"name": "PartitionedCall/Const_36", "op": "Const", "attr": {"value": {"tensor": {"dtype": "DT_INT32", "tensorShape": {"dim": [{"size": "8"}]}}}, "dtype": {"type": "DT_INT32"}}}, {"name": "PartitionedCall/All_5", "op": "Const", "attr": {"dtype": {"type": "DT_BOOL"}, "value": {"tensor": {"dtype": "DT_BOOL", "tensorShape": {}}}}}, {"name": "PartitionedCall/transpose_34/perm", "op": "Const", "attr": {"dtype": {"type": "DT_INT32"}, "value": {"tensor": {"dtype": "DT_INT32", "tensorShape": {"dim": [{"size": "4"}]}}}}}, {"name": "PartitionedCall/Reshape_26", "op": "Const", "attr": {"dtype": {"type": "DT_FLOAT"}, "value": {"tensor": {"dtype": "DT_FLOAT", "tensorShape": {"dim": [{"size": "3"}, {"size": "3"}, {"size": "64"}, {"size": "1"}]}}}}}, {"name": "unknown_23", "op": "Const", "attr": {"dtype": {"type": "DT_FLOAT"}, "value": {"tensor": {"dtype": "DT_FLOAT", "tensorShape": {"dim": [{"size": "64"}]}}}}}, {"name": "PartitionedCall/transpose_35/perm", "op": "Const", "attr": {"value": {"tensor": {"dtype": "DT_INT32", "tensorShape": {"dim": [{"size": "4"}]}}}, "dtype": {"type": "DT_INT32"}}}, {"name": "PartitionedCall/moments_11/mean/reduction_indices", "op": "Const", "attr": {"value": {"tensor": {"dtype": "DT_INT32", "tensorShape": {"dim": [{"size": "2"}]}}}, "dtype": {"type": "DT_INT32"}}}, {"name": "PartitionedCall/moments_11/variance/reduction_indices", "op": "Const", "attr": {"dtype": {"type": "DT_INT32"}, "value": {"tensor": {"dtype": "DT_INT32", "tensorShape": {"dim": [{"size": "2"}]}}}}}, {"name": "PartitionedCall/onnx_tf_prefix_instancenorm_11/add/y", "op": "Const", "attr": {"dtype": {"type": "DT_FLOAT"}, "value": {"tensor": {"dtype": "DT_FLOAT", "tensorShape": {}}}}}, {"name": "PartitionedCall/transpose_37/perm", "op": "Const", "attr": {"value": {"tensor": {"dtype": "DT_INT32", "tensorShape": {"dim": [{"size": "4"}]}}}, "dtype": {"type": "DT_INT32"}}}, {"name": "PartitionedCall/split_7", "op": "Const", "attr": {"dtype": {"type": "DT_FLOAT"}, "value": {"tensor": {"dtype": "DT_FLOAT", "tensorShape": {"dim": [{"size": "1"}, {"size": "1"}, {"size": "64"}, {"size": "64"}]}}}}}, {"name": "unknown_25", "op": "Const", "attr": {"dtype": {"type": "DT_FLOAT"}, "value": {"tensor": {"dtype": "DT_FLOAT", "tensorShape": {"dim": [{"size": "64"}]}}}}}, {"name": "PartitionedCall/transpose_38/perm", "op": "Const", "attr": {"value": {"tensor": {"dtype": "DT_INT32", "tensorShape": {"dim": [{"size": "4"}]}}}, "dtype": {"type": "DT_INT32"}}}, {"name": "PartitionedCall/moments_12/mean/reduction_indices", "op": "Const", "attr": {"dtype": {"type": "DT_INT32"}, "value": {"tensor": {"dtype": "DT_INT32", "tensorShape": {"dim": [{"size": "2"}]}}}}}, {"name": "PartitionedCall/moments_12/variance/reduction_indices", "op": "Const", "attr": {"value": {"tensor": {"dtype": "DT_INT32", "tensorShape": {"dim": [{"size": "2"}]}}}, "dtype": {"type": "DT_INT32"}}}, {"name": "PartitionedCall/onnx_tf_prefix_instancenorm_12/add/y", "op": "Const", "attr": {"value": {"tensor": {"dtype": "DT_FLOAT", "tensorShape": {}}}, "dtype": {"type": "DT_FLOAT"}}}, {"name": "PartitionedCall/Const_42", "op": "Const", "attr": {"value": {"tensor": {"dtype": "DT_INT32", "tensorShape": {"dim": [{"size": "8"}]}}}, "dtype": {"type": "DT_INT32"}}}, {"name": "PartitionedCall/All_6", "op": "Const", "attr": {"value": {"tensor": {"dtype": "DT_BOOL", "tensorShape": {}}}, "dtype": {"type": "DT_BOOL"}}}, {"name": "PartitionedCall/transpose_40/perm", "op": "Const", "attr": {"dtype": {"type": "DT_INT32"}, "value": {"tensor": {"dtype": "DT_INT32", "tensorShape": {"dim": [{"size": "4"}]}}}}}, {"name": "PartitionedCall/Reshape_31", "op": "Const", "attr": {"value": {"tensor": {"dtype": "DT_FLOAT", "tensorShape": {"dim": [{"size": "3"}, {"size": "3"}, {"size": "64"}, {"size": "1"}]}}}, "dtype": {"type": "DT_FLOAT"}}}, {"name": "unknown_27", "op": "Const", "attr": {"dtype": {"type": "DT_FLOAT"}, "value": {"tensor": {"dtype": "DT_FLOAT", "tensorShape": {"dim": [{"size": "64"}]}}}}}, {"name": "PartitionedCall/transpose_41/perm", "op": "Const", "attr": {"value": {"tensor": {"dtype": "DT_INT32", "tensorShape": {"dim": [{"size": "4"}]}}}, "dtype": {"type": "DT_INT32"}}}, {"name": "PartitionedCall/moments_13/mean/reduction_indices", "op": "Const", "attr": {"dtype": {"type": "DT_INT32"}, "value": {"tensor": {"dtype": "DT_INT32", "tensorShape": {"dim": [{"size": "2"}]}}}}}, {"name": "PartitionedCall/moments_13/variance/reduction_indices", "op": "Const", "attr": {"dtype": {"type": "DT_INT32"}, "value": {"tensor": {"dtype": "DT_INT32", "tensorShape": {"dim": [{"size": "2"}]}}}}}, {"name": "PartitionedCall/onnx_tf_prefix_instancenorm_13/add/y", "op": "Const", "attr": {"dtype": {"type": "DT_FLOAT"}, "value": {"tensor": {"dtype": "DT_FLOAT", "tensorShape": {}}}}}, {"name": "PartitionedCall/transpose_43/perm", "op": "Const", "attr": {"dtype": {"type": "DT_INT32"}, "value": {"tensor": {"dtype": "DT_INT32", "tensorShape": {"dim": [{"size": "4"}]}}}}}, {"name": "PartitionedCall/split_8", "op": "Const", "attr": {"dtype": {"type": "DT_FLOAT"}, "value": {"tensor": {"dtype": "DT_FLOAT", "tensorShape": {"dim": [{"size": "1"}, {"size": "1"}, {"size": "64"}, {"size": "64"}]}}}}}, {"name": "unknown_29", "op": "Const", "attr": {"dtype": {"type": "DT_FLOAT"}, "value": {"tensor": {"dtype": "DT_FLOAT", "tensorShape": {"dim": [{"size": "64"}]}}}}}, {"name": "PartitionedCall/transpose_44/perm", "op": "Const", "attr": {"dtype": {"type": "DT_INT32"}, "value": {"tensor": {"dtype": "DT_INT32", "tensorShape": {"dim": [{"size": "4"}]}}}}}, {"name": "PartitionedCall/moments_14/mean/reduction_indices", "op": "Const", "attr": {"value": {"tensor": {"dtype": "DT_INT32", "tensorShape": {"dim": [{"size": "2"}]}}}, "dtype": {"type": "DT_INT32"}}}, {"name": "PartitionedCall/moments_14/variance/reduction_indices", "op": "Const", "attr": {"value": {"tensor": {"dtype": "DT_INT32", "tensorShape": {"dim": [{"size": "2"}]}}}, "dtype": {"type": "DT_INT32"}}}, {"name": "PartitionedCall/onnx_tf_prefix_instancenorm_14/add/y", "op": "Const", "attr": {"value": {"tensor": {"dtype": "DT_FLOAT", "tensorShape": {}}}, "dtype": {"type": "DT_FLOAT"}}}, {"name": "PartitionedCall/Const_48", "op": "Const", "attr": {"dtype": {"type": "DT_INT32"}, "value": {"tensor": {"dtype": "DT_INT32", "tensorShape": {"dim": [{"size": "8"}]}}}}}, {"name": "PartitionedCall/All_7", "op": "Const", "attr": {"value": {"tensor": {"dtype": "DT_BOOL", "tensorShape": {}}}, "dtype": {"type": "DT_BOOL"}}}, {"name": "PartitionedCall/transpose_46/perm", "op": "Const", "attr": {"dtype": {"type": "DT_INT32"}, "value": {"tensor": {"dtype": "DT_INT32", "tensorShape": {"dim": [{"size": "4"}]}}}}}, {"name": "PartitionedCall/Reshape_36", "op": "Const", "attr": {"dtype": {"type": "DT_FLOAT"}, "value": {"tensor": {"dtype": "DT_FLOAT", "tensorShape": {"dim": [{"size": "3"}, {"size": "3"}, {"size": "64"}, {"size": "1"}]}}}}}, {"name": "unknown_31", "op": "Const", "attr": {"dtype": {"type": "DT_FLOAT"}, "value": {"tensor": {"dtype": "DT_FLOAT", "tensorShape": {"dim": [{"size": "64"}]}}}}}, {"name": "PartitionedCall/transpose_47/perm", "op": "Const", "attr": {"dtype": {"type": "DT_INT32"}, "value": {"tensor": {"dtype": "DT_INT32", "tensorShape": {"dim": [{"size": "4"}]}}}}}, {"name": "PartitionedCall/moments_15/mean/reduction_indices", "op": "Const", "attr": {"dtype": {"type": "DT_INT32"}, "value": {"tensor": {"dtype": "DT_INT32", "tensorShape": {"dim": [{"size": "2"}]}}}}}, {"name": "PartitionedCall/moments_15/variance/reduction_indices", "op": "Const", "attr": {"value": {"tensor": {"dtype": "DT_INT32", "tensorShape": {"dim": [{"size": "2"}]}}}, "dtype": {"type": "DT_INT32"}}}, {"name": "PartitionedCall/onnx_tf_prefix_instancenorm_15/add/y", "op": "Const", "attr": {"value": {"tensor": {"dtype": "DT_FLOAT", "tensorShape": {}}}, "dtype": {"type": "DT_FLOAT"}}}, {"name": "PartitionedCall/transpose_49/perm", "op": "Const", "attr": {"value": {"tensor": {"dtype": "DT_INT32", "tensorShape": {"dim": [{"size": "4"}]}}}, "dtype": {"type": "DT_INT32"}}}, {"name": "PartitionedCall/split_9", "op": "Const", "attr": {"dtype": {"type": "DT_FLOAT"}, "value": {"tensor": {"dtype": "DT_FLOAT", "tensorShape": {"dim": [{"size": "1"}, {"size": "1"}, {"size": "64"}, {"size": "64"}]}}}}}, {"name": "unknown_33", "op": "Const", "attr": {"value": {"tensor": {"dtype": "DT_FLOAT", "tensorShape": {"dim": [{"size": "64"}]}}}, "dtype": {"type": "DT_FLOAT"}}}, {"name": "PartitionedCall/transpose_50/perm", "op": "Const", "attr": {"value": {"tensor": {"dtype": "DT_INT32", "tensorShape": {"dim": [{"size": "4"}]}}}, "dtype": {"type": "DT_INT32"}}}, {"name": "PartitionedCall/moments_16/mean/reduction_indices", "op": "Const", "attr": {"dtype": {"type": "DT_INT32"}, "value": {"tensor": {"dtype": "DT_INT32", "tensorShape": {"dim": [{"size": "2"}]}}}}}, {"name": "PartitionedCall/moments_16/variance/reduction_indices", "op": "Const", "attr": {"dtype": {"type": "DT_INT32"}, "value": {"tensor": {"dtype": "DT_INT32", "tensorShape": {"dim": [{"size": "2"}]}}}}}, {"name": "PartitionedCall/onnx_tf_prefix_instancenorm_16/add/y", "op": "Const", "attr": {"dtype": {"type": "DT_FLOAT"}, "value": {"tensor": {"dtype": "DT_FLOAT", "tensorShape": {}}}}}, {"name": "PartitionedCall/Const_54", "op": "Const", "attr": {"dtype": {"type": "DT_INT32"}, "value": {"tensor": {"dtype": "DT_INT32", "tensorShape": {"dim": [{"size": "8"}]}}}}}, {"name": "PartitionedCall/All_8", "op": "Const", "attr": {"value": {"tensor": {"dtype": "DT_BOOL", "tensorShape": {}}}, "dtype": {"type": "DT_BOOL"}}}, {"name": "PartitionedCall/transpose_52/perm", "op": "Const", "attr": {"value": {"tensor": {"dtype": "DT_INT32", "tensorShape": {"dim": [{"size": "4"}]}}}, "dtype": {"type": "DT_INT32"}}}, {"name": "PartitionedCall/Reshape_41", "op": "Const", "attr": {"dtype": {"type": "DT_FLOAT"}, "value": {"tensor": {"dtype": "DT_FLOAT", "tensorShape": {"dim": [{"size": "3"}, {"size": "3"}, {"size": "64"}, {"size": "1"}]}}}}}, {"name": "unknown_35", "op": "Const", "attr": {"dtype": {"type": "DT_FLOAT"}, "value": {"tensor": {"dtype": "DT_FLOAT", "tensorShape": {"dim": [{"size": "64"}]}}}}}, {"name": "PartitionedCall/transpose_53/perm", "op": "Const", "attr": {"dtype": {"type": "DT_INT32"}, "value": {"tensor": {"dtype": "DT_INT32", "tensorShape": {"dim": [{"size": "4"}]}}}}}, {"name": "PartitionedCall/moments_17/mean/reduction_indices", "op": "Const", "attr": {"value": {"tensor": {"dtype": "DT_INT32", "tensorShape": {"dim": [{"size": "2"}]}}}, "dtype": {"type": "DT_INT32"}}}, {"name": "PartitionedCall/moments_17/variance/reduction_indices", "op": "Const", "attr": {"dtype": {"type": "DT_INT32"}, "value": {"tensor": {"dtype": "DT_INT32", "tensorShape": {"dim": [{"size": "2"}]}}}}}, {"name": "PartitionedCall/onnx_tf_prefix_instancenorm_17/add/y", "op": "Const", "attr": {"value": {"tensor": {"dtype": "DT_FLOAT", "tensorShape": {}}}, "dtype": {"type": "DT_FLOAT"}}}, {"name": "PartitionedCall/transpose_55/perm", "op": "Const", "attr": {"dtype": {"type": "DT_INT32"}, "value": {"tensor": {"dtype": "DT_INT32", "tensorShape": {"dim": [{"size": "4"}]}}}}}, {"name": "PartitionedCall/split_10", "op": "Const", "attr": {"dtype": {"type": "DT_FLOAT"}, "value": {"tensor": {"dtype": "DT_FLOAT", "tensorShape": {"dim": [{"size": "1"}, {"size": "1"}, {"size": "64"}, {"size": "64"}]}}}}}, {"name": "unknown_37", "op": "Const", "attr": {"dtype": {"type": "DT_FLOAT"}, "value": {"tensor": {"dtype": "DT_FLOAT", "tensorShape": {"dim": [{"size": "64"}]}}}}}, {"name": "PartitionedCall/transpose_56/perm", "op": "Const", "attr": {"dtype": {"type": "DT_INT32"}, "value": {"tensor": {"dtype": "DT_INT32", "tensorShape": {"dim": [{"size": "4"}]}}}}}, {"name": "PartitionedCall/moments_18/mean/reduction_indices", "op": "Const", "attr": {"dtype": {"type": "DT_INT32"}, "value": {"tensor": {"dtype": "DT_INT32", "tensorShape": {"dim": [{"size": "2"}]}}}}}, {"name": "PartitionedCall/moments_18/variance/reduction_indices", "op": "Const", "attr": {"value": {"tensor": {"dtype": "DT_INT32", "tensorShape": {"dim": [{"size": "2"}]}}}, "dtype": {"type": "DT_INT32"}}}, {"name": "PartitionedCall/onnx_tf_prefix_instancenorm_18/add/y", "op": "Const", "attr": {"dtype": {"type": "DT_FLOAT"}, "value": {"tensor": {"dtype": "DT_FLOAT", "tensorShape": {}}}}}, {"name": "PartitionedCall/Const_60", "op": "Const", "attr": {"dtype": {"type": "DT_INT32"}, "value": {"tensor": {"dtype": "DT_INT32", "tensorShape": {"dim": [{"size": "8"}]}}}}}, {"name": "PartitionedCall/All_9", "op": "Const", "attr": {"dtype": {"type": "DT_BOOL"}, "value": {"tensor": {"dtype": "DT_BOOL", "tensorShape": {}}}}}, {"name": "PartitionedCall/transpose_58/perm", "op": "Const", "attr": {"dtype": {"type": "DT_INT32"}, "value": {"tensor": {"dtype": "DT_INT32", "tensorShape": {"dim": [{"size": "4"}]}}}}}, {"name": "PartitionedCall/Reshape_46", "op": "Const", "attr": {"dtype": {"type": "DT_FLOAT"}, "value": {"tensor": {"dtype": "DT_FLOAT", "tensorShape": {"dim": [{"size": "3"}, {"size": "3"}, {"size": "64"}, {"size": "1"}]}}}}}, {"name": "unknown_39", "op": "Const", "attr": {"value": {"tensor": {"dtype": "DT_FLOAT", "tensorShape": {"dim": [{"size": "64"}]}}}, "dtype": {"type": "DT_FLOAT"}}}, {"name": "PartitionedCall/transpose_59/perm", "op": "Const", "attr": {"dtype": {"type": "DT_INT32"}, "value": {"tensor": {"dtype": "DT_INT32", "tensorShape": {"dim": [{"size": "4"}]}}}}}, {"name": "PartitionedCall/moments_19/mean/reduction_indices", "op": "Const", "attr": {"value": {"tensor": {"dtype": "DT_INT32", "tensorShape": {"dim": [{"size": "2"}]}}}, "dtype": {"type": "DT_INT32"}}}, {"name": "PartitionedCall/moments_19/variance/reduction_indices", "op": "Const", "attr": {"value": {"tensor": {"dtype": "DT_INT32", "tensorShape": {"dim": [{"size": "2"}]}}}, "dtype": {"type": "DT_INT32"}}}, {"name": "PartitionedCall/onnx_tf_prefix_instancenorm_19/add/y", "op": "Const", "attr": {"value": {"tensor": {"dtype": "DT_FLOAT", "tensorShape": {}}}, "dtype": {"type": "DT_FLOAT"}}}, {"name": "PartitionedCall/transpose_61/perm", "op": "Const", "attr": {"value": {"tensor": {"dtype": "DT_INT32", "tensorShape": {"dim": [{"size": "4"}]}}}, "dtype": {"type": "DT_INT32"}}}, {"name": "PartitionedCall/split_11", "op": "Const", "attr": {"value": {"tensor": {"dtype": "DT_FLOAT", "tensorShape": {"dim": [{"size": "1"}, {"size": "1"}, {"size": "64"}, {"size": "64"}]}}}, "dtype": {"type": "DT_FLOAT"}}}, {"name": "unknown_41", "op": "Const", "attr": {"value": {"tensor": {"dtype": "DT_FLOAT", "tensorShape": {"dim": [{"size": "64"}]}}}, "dtype": {"type": "DT_FLOAT"}}}, {"name": "PartitionedCall/transpose_62/perm", "op": "Const", "attr": {"dtype": {"type": "DT_INT32"}, "value": {"tensor": {"dtype": "DT_INT32", "tensorShape": {"dim": [{"size": "4"}]}}}}}, {"name": "PartitionedCall/moments_20/mean/reduction_indices", "op": "Const", "attr": {"dtype": {"type": "DT_INT32"}, "value": {"tensor": {"dtype": "DT_INT32", "tensorShape": {"dim": [{"size": "2"}]}}}}}, {"name": "PartitionedCall/moments_20/variance/reduction_indices", "op": "Const", "attr": {"value": {"tensor": {"dtype": "DT_INT32", "tensorShape": {"dim": [{"size": "2"}]}}}, "dtype": {"type": "DT_INT32"}}}, {"name": "PartitionedCall/onnx_tf_prefix_instancenorm_20/add/y", "op": "Const", "attr": {"value": {"tensor": {"dtype": "DT_FLOAT", "tensorShape": {}}}, "dtype": {"type": "DT_FLOAT"}}}, {"name": "PartitionedCall/Const_66", "op": "Const", "attr": {"value": {"tensor": {"dtype": "DT_INT32", "tensorShape": {"dim": [{"size": "8"}]}}}, "dtype": {"type": "DT_INT32"}}}, {"name": "PartitionedCall/All_10", "op": "Const", "attr": {"value": {"tensor": {"dtype": "DT_BOOL", "tensorShape": {}}}, "dtype": {"type": "DT_BOOL"}}}, {"name": "PartitionedCall/transpose_64/perm", "op": "Const", "attr": {"value": {"tensor": {"dtype": "DT_INT32", "tensorShape": {"dim": [{"size": "4"}]}}}, "dtype": {"type": "DT_INT32"}}}, {"name": "PartitionedCall/Reshape_51", "op": "Const", "attr": {"value": {"tensor": {"dtype": "DT_FLOAT", "tensorShape": {"dim": [{"size": "3"}, {"size": "3"}, {"size": "64"}, {"size": "1"}]}}}, "dtype": {"type": "DT_FLOAT"}}}, {"name": "unknown_43", "op": "Const", "attr": {"value": {"tensor": {"dtype": "DT_FLOAT", "tensorShape": {"dim": [{"size": "64"}]}}}, "dtype": {"type": "DT_FLOAT"}}}, {"name": "PartitionedCall/transpose_65/perm", "op": "Const", "attr": {"dtype": {"type": "DT_INT32"}, "value": {"tensor": {"dtype": "DT_INT32", "tensorShape": {"dim": [{"size": "4"}]}}}}}, {"name": "PartitionedCall/moments_21/mean/reduction_indices", "op": "Const", "attr": {"dtype": {"type": "DT_INT32"}, "value": {"tensor": {"dtype": "DT_INT32", "tensorShape": {"dim": [{"size": "2"}]}}}}}, {"name": "PartitionedCall/moments_21/variance/reduction_indices", "op": "Const", "attr": {"dtype": {"type": "DT_INT32"}, "value": {"tensor": {"dtype": "DT_INT32", "tensorShape": {"dim": [{"size": "2"}]}}}}}, {"name": "PartitionedCall/onnx_tf_prefix_instancenorm_21/add/y", "op": "Const", "attr": {"dtype": {"type": "DT_FLOAT"}, "value": {"tensor": {"dtype": "DT_FLOAT", "tensorShape": {}}}}}, {"name": "PartitionedCall/transpose_67/perm", "op": "Const", "attr": {"value": {"tensor": {"dtype": "DT_INT32", "tensorShape": {"dim": [{"size": "4"}]}}}, "dtype": {"type": "DT_INT32"}}}, {"name": "PartitionedCall/split_12", "op": "Const", "attr": {"value": {"tensor": {"dtype": "DT_FLOAT", "tensorShape": {"dim": [{"size": "1"}, {"size": "1"}, {"size": "64"}, {"size": "64"}]}}}, "dtype": {"type": "DT_FLOAT"}}}, {"name": "unknown_45", "op": "Const", "attr": {"dtype": {"type": "DT_FLOAT"}, "value": {"tensor": {"dtype": "DT_FLOAT", "tensorShape": {"dim": [{"size": "64"}]}}}}}, {"name": "PartitionedCall/transpose_68/perm", "op": "Const", "attr": {"dtype": {"type": "DT_INT32"}, "value": {"tensor": {"dtype": "DT_INT32", "tensorShape": {"dim": [{"size": "4"}]}}}}}, {"name": "PartitionedCall/moments_22/mean/reduction_indices", "op": "Const", "attr": {"value": {"tensor": {"dtype": "DT_INT32", "tensorShape": {"dim": [{"size": "2"}]}}}, "dtype": {"type": "DT_INT32"}}}, {"name": "PartitionedCall/moments_22/variance/reduction_indices", "op": "Const", "attr": {"dtype": {"type": "DT_INT32"}, "value": {"tensor": {"dtype": "DT_INT32", "tensorShape": {"dim": [{"size": "2"}]}}}}}, {"name": "PartitionedCall/onnx_tf_prefix_instancenorm_22/add/y", "op": "Const", "attr": {"value": {"tensor": {"dtype": "DT_FLOAT", "tensorShape": {}}}, "dtype": {"type": "DT_FLOAT"}}}, {"name": "PartitionedCall/Const_72", "op": "Const", "attr": {"value": {"tensor": {"dtype": "DT_INT32", "tensorShape": {"dim": [{"size": "8"}]}}}, "dtype": {"type": "DT_INT32"}}}, {"name": "PartitionedCall/All_11", "op": "Const", "attr": {"dtype": {"type": "DT_BOOL"}, "value": {"tensor": {"dtype": "DT_BOOL", "tensorShape": {}}}}}, {"name": "PartitionedCall/transpose_70/perm", "op": "Const", "attr": {"dtype": {"type": "DT_INT32"}, "value": {"tensor": {"dtype": "DT_INT32", "tensorShape": {"dim": [{"size": "4"}]}}}}}, {"name": "PartitionedCall/Reshape_56", "op": "Const", "attr": {"value": {"tensor": {"dtype": "DT_FLOAT", "tensorShape": {"dim": [{"size": "3"}, {"size": "3"}, {"size": "64"}, {"size": "1"}]}}}, "dtype": {"type": "DT_FLOAT"}}}, {"name": "unknown_47", "op": "Const", "attr": {"value": {"tensor": {"dtype": "DT_FLOAT", "tensorShape": {"dim": [{"size": "64"}]}}}, "dtype": {"type": "DT_FLOAT"}}}, {"name": "PartitionedCall/transpose_71/perm", "op": "Const", "attr": {"dtype": {"type": "DT_INT32"}, "value": {"tensor": {"dtype": "DT_INT32", "tensorShape": {"dim": [{"size": "4"}]}}}}}, {"name": "PartitionedCall/moments_23/mean/reduction_indices", "op": "Const", "attr": {"value": {"tensor": {"dtype": "DT_INT32", "tensorShape": {"dim": [{"size": "2"}]}}}, "dtype": {"type": "DT_INT32"}}}, {"name": "PartitionedCall/moments_23/variance/reduction_indices", "op": "Const", "attr": {"dtype": {"type": "DT_INT32"}, "value": {"tensor": {"dtype": "DT_INT32", "tensorShape": {"dim": [{"size": "2"}]}}}}}, {"name": "PartitionedCall/onnx_tf_prefix_instancenorm_23/add/y", "op": "Const", "attr": {"dtype": {"type": "DT_FLOAT"}, "value": {"tensor": {"dtype": "DT_FLOAT", "tensorShape": {}}}}}, {"name": "PartitionedCall/transpose_73/perm", "op": "Const", "attr": {"value": {"tensor": {"dtype": "DT_INT32", "tensorShape": {"dim": [{"size": "4"}]}}}, "dtype": {"type": "DT_INT32"}}}, {"name": "PartitionedCall/split_13", "op": "Const", "attr": {"value": {"tensor": {"dtype": "DT_FLOAT", "tensorShape": {"dim": [{"size": "1"}, {"size": "1"}, {"size": "64"}, {"size": "64"}]}}}, "dtype": {"type": "DT_FLOAT"}}}, {"name": "unknown_49", "op": "Const", "attr": {"dtype": {"type": "DT_FLOAT"}, "value": {"tensor": {"dtype": "DT_FLOAT", "tensorShape": {"dim": [{"size": "64"}]}}}}}, {"name": "PartitionedCall/transpose_74/perm", "op": "Const", "attr": {"value": {"tensor": {"dtype": "DT_INT32", "tensorShape": {"dim": [{"size": "4"}]}}}, "dtype": {"type": "DT_INT32"}}}, {"name": "PartitionedCall/moments_24/mean/reduction_indices", "op": "Const", "attr": {"value": {"tensor": {"dtype": "DT_INT32", "tensorShape": {"dim": [{"size": "2"}]}}}, "dtype": {"type": "DT_INT32"}}}, {"name": "PartitionedCall/moments_24/variance/reduction_indices", "op": "Const", "attr": {"value": {"tensor": {"dtype": "DT_INT32", "tensorShape": {"dim": [{"size": "2"}]}}}, "dtype": {"type": "DT_INT32"}}}, {"name": "PartitionedCall/onnx_tf_prefix_instancenorm_24/add/y", "op": "Const", "attr": {"dtype": {"type": "DT_FLOAT"}, "value": {"tensor": {"dtype": "DT_FLOAT", "tensorShape": {}}}}}, {"name": "PartitionedCall/Const_78", "op": "Const", "attr": {"dtype": {"type": "DT_INT32"}, "value": {"tensor": {"dtype": "DT_INT32", "tensorShape": {"dim": [{"size": "8"}]}}}}}, {"name": "PartitionedCall/All_12", "op": "Const", "attr": {"value": {"tensor": {"dtype": "DT_BOOL", "tensorShape": {}}}, "dtype": {"type": "DT_BOOL"}}}, {"name": "PartitionedCall/transpose_76/perm", "op": "Const", "attr": {"dtype": {"type": "DT_INT32"}, "value": {"tensor": {"dtype": "DT_INT32", "tensorShape": {"dim": [{"size": "4"}]}}}}}, {"name": "PartitionedCall/Reshape_61", "op": "Const", "attr": {"value": {"tensor": {"dtype": "DT_FLOAT", "tensorShape": {"dim": [{"size": "3"}, {"size": "3"}, {"size": "64"}, {"size": "1"}]}}}, "dtype": {"type": "DT_FLOAT"}}}, {"name": "unknown_51", "op": "Const", "attr": {"value": {"tensor": {"dtype": "DT_FLOAT", "tensorShape": {"dim": [{"size": "64"}]}}}, "dtype": {"type": "DT_FLOAT"}}}, {"name": "PartitionedCall/transpose_77/perm", "op": "Const", "attr": {"dtype": {"type": "DT_INT32"}, "value": {"tensor": {"dtype": "DT_INT32", "tensorShape": {"dim": [{"size": "4"}]}}}}}, {"name": "PartitionedCall/moments_25/mean/reduction_indices", "op": "Const", "attr": {"dtype": {"type": "DT_INT32"}, "value": {"tensor": {"dtype": "DT_INT32", "tensorShape": {"dim": [{"size": "2"}]}}}}}, {"name": "PartitionedCall/moments_25/variance/reduction_indices", "op": "Const", "attr": {"value": {"tensor": {"dtype": "DT_INT32", "tensorShape": {"dim": [{"size": "2"}]}}}, "dtype": {"type": "DT_INT32"}}}, {"name": "PartitionedCall/onnx_tf_prefix_instancenorm_25/add/y", "op": "Const", "attr": {"value": {"tensor": {"dtype": "DT_FLOAT", "tensorShape": {}}}, "dtype": {"type": "DT_FLOAT"}}}, {"name": "PartitionedCall/transpose_79/perm", "op": "Const", "attr": {"dtype": {"type": "DT_INT32"}, "value": {"tensor": {"dtype": "DT_INT32", "tensorShape": {"dim": [{"size": "4"}]}}}}}, {"name": "PartitionedCall/split_14", "op": "Const", "attr": {"value": {"tensor": {"dtype": "DT_FLOAT", "tensorShape": {"dim": [{"size": "1"}, {"size": "1"}, {"size": "64"}, {"size": "64"}]}}}, "dtype": {"type": "DT_FLOAT"}}}, {"name": "unknown_53", "op": "Const", "attr": {"value": {"tensor": {"dtype": "DT_FLOAT", "tensorShape": {"dim": [{"size": "64"}]}}}, "dtype": {"type": "DT_FLOAT"}}}, {"name": "PartitionedCall/transpose_80/perm", "op": "Const", "attr": {"dtype": {"type": "DT_INT32"}, "value": {"tensor": {"dtype": "DT_INT32", "tensorShape": {"dim": [{"size": "4"}]}}}}}, {"name": "PartitionedCall/moments_26/mean/reduction_indices", "op": "Const", "attr": {"dtype": {"type": "DT_INT32"}, "value": {"tensor": {"dtype": "DT_INT32", "tensorShape": {"dim": [{"size": "2"}]}}}}}, {"name": "PartitionedCall/moments_26/variance/reduction_indices", "op": "Const", "attr": {"dtype": {"type": "DT_INT32"}, "value": {"tensor": {"dtype": "DT_INT32", "tensorShape": {"dim": [{"size": "2"}]}}}}}, {"name": "PartitionedCall/onnx_tf_prefix_instancenorm_26/add/y", "op": "Const", "attr": {"dtype": {"type": "DT_FLOAT"}, "value": {"tensor": {"dtype": "DT_FLOAT", "tensorShape": {}}}}}, {"name": "PartitionedCall/Const_84", "op": "Const", "attr": {"dtype": {"type": "DT_INT32"}, "value": {"tensor": {"dtype": "DT_INT32", "tensorShape": {"dim": [{"size": "8"}]}}}}}, {"name": "PartitionedCall/All_13", "op": "Const", "attr": {"dtype": {"type": "DT_BOOL"}, "value": {"tensor": {"dtype": "DT_BOOL", "tensorShape": {}}}}}, {"name": "PartitionedCall/transpose_82/perm", "op": "Const", "attr": {"dtype": {"type": "DT_INT32"}, "value": {"tensor": {"dtype": "DT_INT32", "tensorShape": {"dim": [{"size": "4"}]}}}}}, {"name": "PartitionedCall/Reshape_66", "op": "Const", "attr": {"dtype": {"type": "DT_FLOAT"}, "value": {"tensor": {"dtype": "DT_FLOAT", "tensorShape": {"dim": [{"size": "3"}, {"size": "3"}, {"size": "64"}, {"size": "1"}]}}}}}, {"name": "unknown_55", "op": "Const", "attr": {"dtype": {"type": "DT_FLOAT"}, "value": {"tensor": {"dtype": "DT_FLOAT", "tensorShape": {"dim": [{"size": "64"}]}}}}}, {"name": "PartitionedCall/transpose_83/perm", "op": "Const", "attr": {"dtype": {"type": "DT_INT32"}, "value": {"tensor": {"dtype": "DT_INT32", "tensorShape": {"dim": [{"size": "4"}]}}}}}, {"name": "PartitionedCall/moments_27/mean/reduction_indices", "op": "Const", "attr": {"value": {"tensor": {"dtype": "DT_INT32", "tensorShape": {"dim": [{"size": "2"}]}}}, "dtype": {"type": "DT_INT32"}}}, {"name": "PartitionedCall/moments_27/variance/reduction_indices", "op": "Const", "attr": {"value": {"tensor": {"dtype": "DT_INT32", "tensorShape": {"dim": [{"size": "2"}]}}}, "dtype": {"type": "DT_INT32"}}}, {"name": "PartitionedCall/onnx_tf_prefix_instancenorm_27/add/y", "op": "Const", "attr": {"value": {"tensor": {"dtype": "DT_FLOAT", "tensorShape": {}}}, "dtype": {"type": "DT_FLOAT"}}}, {"name": "PartitionedCall/transpose_85/perm", "op": "Const", "attr": {"dtype": {"type": "DT_INT32"}, "value": {"tensor": {"dtype": "DT_INT32", "tensorShape": {"dim": [{"size": "4"}]}}}}}, {"name": "PartitionedCall/split_15", "op": "Const", "attr": {"value": {"tensor": {"dtype": "DT_FLOAT", "tensorShape": {"dim": [{"size": "1"}, {"size": "1"}, {"size": "64"}, {"size": "64"}]}}}, "dtype": {"type": "DT_FLOAT"}}}, {"name": "unknown_57", "op": "Const", "attr": {"dtype": {"type": "DT_FLOAT"}, "value": {"tensor": {"dtype": "DT_FLOAT", "tensorShape": {"dim": [{"size": "64"}]}}}}}, {"name": "PartitionedCall/transpose_86/perm", "op": "Const", "attr": {"dtype": {"type": "DT_INT32"}, "value": {"tensor": {"dtype": "DT_INT32", "tensorShape": {"dim": [{"size": "4"}]}}}}}, {"name": "PartitionedCall/moments_28/mean/reduction_indices", "op": "Const", "attr": {"value": {"tensor": {"dtype": "DT_INT32", "tensorShape": {"dim": [{"size": "2"}]}}}, "dtype": {"type": "DT_INT32"}}}, {"name": "PartitionedCall/moments_28/variance/reduction_indices", "op": "Const", "attr": {"dtype": {"type": "DT_INT32"}, "value": {"tensor": {"dtype": "DT_INT32", "tensorShape": {"dim": [{"size": "2"}]}}}}}, {"name": "PartitionedCall/onnx_tf_prefix_instancenorm_28/add/y", "op": "Const", "attr": {"value": {"tensor": {"dtype": "DT_FLOAT", "tensorShape": {}}}, "dtype": {"type": "DT_FLOAT"}}}, {"name": "PartitionedCall/Const_90", "op": "Const", "attr": {"dtype": {"type": "DT_INT32"}, "value": {"tensor": {"dtype": "DT_INT32", "tensorShape": {"dim": [{"size": "8"}]}}}}}, {"name": "PartitionedCall/All_14", "op": "Const", "attr": {"value": {"tensor": {"dtype": "DT_BOOL", "tensorShape": {}}}, "dtype": {"type": "DT_BOOL"}}}, {"name": "PartitionedCall/transpose_88/perm", "op": "Const", "attr": {"dtype": {"type": "DT_INT32"}, "value": {"tensor": {"dtype": "DT_INT32", "tensorShape": {"dim": [{"size": "4"}]}}}}}, {"name": "PartitionedCall/Reshape_71", "op": "Const", "attr": {"value": {"tensor": {"dtype": "DT_FLOAT", "tensorShape": {"dim": [{"size": "3"}, {"size": "3"}, {"size": "64"}, {"size": "1"}]}}}, "dtype": {"type": "DT_FLOAT"}}}, {"name": "unknown_59", "op": "Const", "attr": {"dtype": {"type": "DT_FLOAT"}, "value": {"tensor": {"dtype": "DT_FLOAT", "tensorShape": {"dim": [{"size": "64"}]}}}}}, {"name": "PartitionedCall/transpose_89/perm", "op": "Const", "attr": {"value": {"tensor": {"dtype": "DT_INT32", "tensorShape": {"dim": [{"size": "4"}]}}}, "dtype": {"type": "DT_INT32"}}}, {"name": "PartitionedCall/moments_29/mean/reduction_indices", "op": "Const", "attr": {"dtype": {"type": "DT_INT32"}, "value": {"tensor": {"dtype": "DT_INT32", "tensorShape": {"dim": [{"size": "2"}]}}}}}, {"name": "PartitionedCall/moments_29/variance/reduction_indices", "op": "Const", "attr": {"dtype": {"type": "DT_INT32"}, "value": {"tensor": {"dtype": "DT_INT32", "tensorShape": {"dim": [{"size": "2"}]}}}}}, {"name": "PartitionedCall/onnx_tf_prefix_instancenorm_29/add/y", "op": "Const", "attr": {"value": {"tensor": {"dtype": "DT_FLOAT", "tensorShape": {}}}, "dtype": {"type": "DT_FLOAT"}}}, {"name": "PartitionedCall/transpose_91/perm", "op": "Const", "attr": {"dtype": {"type": "DT_INT32"}, "value": {"tensor": {"dtype": "DT_INT32", "tensorShape": {"dim": [{"size": "4"}]}}}}}, {"name": "PartitionedCall/split_16", "op": "Const", "attr": {"value": {"tensor": {"dtype": "DT_FLOAT", "tensorShape": {"dim": [{"size": "1"}, {"size": "1"}, {"size": "64"}, {"size": "64"}]}}}, "dtype": {"type": "DT_FLOAT"}}}, {"name": "unknown_61", "op": "Const", "attr": {"dtype": {"type": "DT_FLOAT"}, "value": {"tensor": {"dtype": "DT_FLOAT", "tensorShape": {"dim": [{"size": "64"}]}}}}}, {"name": "PartitionedCall/transpose_92/perm", "op": "Const", "attr": {"value": {"tensor": {"dtype": "DT_INT32", "tensorShape": {"dim": [{"size": "4"}]}}}, "dtype": {"type": "DT_INT32"}}}, {"name": "PartitionedCall/moments_30/mean/reduction_indices", "op": "Const", "attr": {"dtype": {"type": "DT_INT32"}, "value": {"tensor": {"dtype": "DT_INT32", "tensorShape": {"dim": [{"size": "2"}]}}}}}, {"name": "PartitionedCall/moments_30/variance/reduction_indices", "op": "Const", "attr": {"value": {"tensor": {"dtype": "DT_INT32", "tensorShape": {"dim": [{"size": "2"}]}}}, "dtype": {"type": "DT_INT32"}}}, {"name": "PartitionedCall/onnx_tf_prefix_instancenorm_30/add/y", "op": "Const", "attr": {"dtype": {"type": "DT_FLOAT"}, "value": {"tensor": {"dtype": "DT_FLOAT", "tensorShape": {}}}}}, {"name": "PartitionedCall/Const_96", "op": "Const", "attr": {"dtype": {"type": "DT_INT32"}, "value": {"tensor": {"dtype": "DT_INT32", "tensorShape": {"dim": [{"size": "8"}]}}}}}, {"name": "PartitionedCall/All_15", "op": "Const", "attr": {"dtype": {"type": "DT_BOOL"}, "value": {"tensor": {"dtype": "DT_BOOL", "tensorShape": {}}}}}, {"name": "PartitionedCall/transpose_94/perm", "op": "Const", "attr": {"dtype": {"type": "DT_INT32"}, "value": {"tensor": {"dtype": "DT_INT32", "tensorShape": {"dim": [{"size": "4"}]}}}}}, {"name": "PartitionedCall/Reshape_76", "op": "Const", "attr": {"value": {"tensor": {"dtype": "DT_FLOAT", "tensorShape": {"dim": [{"size": "3"}, {"size": "3"}, {"size": "64"}, {"size": "1"}]}}}, "dtype": {"type": "DT_FLOAT"}}}, {"name": "unknown_63", "op": "Const", "attr": {"value": {"tensor": {"dtype": "DT_FLOAT", "tensorShape": {"dim": [{"size": "64"}]}}}, "dtype": {"type": "DT_FLOAT"}}}, {"name": "PartitionedCall/transpose_95/perm", "op": "Const", "attr": {"dtype": {"type": "DT_INT32"}, "value": {"tensor": {"dtype": "DT_INT32", "tensorShape": {"dim": [{"size": "4"}]}}}}}, {"name": "PartitionedCall/moments_31/mean/reduction_indices", "op": "Const", "attr": {"dtype": {"type": "DT_INT32"}, "value": {"tensor": {"dtype": "DT_INT32", "tensorShape": {"dim": [{"size": "2"}]}}}}}, {"name": "PartitionedCall/moments_31/variance/reduction_indices", "op": "Const", "attr": {"dtype": {"type": "DT_INT32"}, "value": {"tensor": {"dtype": "DT_INT32", "tensorShape": {"dim": [{"size": "2"}]}}}}}, {"name": "PartitionedCall/onnx_tf_prefix_instancenorm_31/add/y", "op": "Const", "attr": {"dtype": {"type": "DT_FLOAT"}, "value": {"tensor": {"dtype": "DT_FLOAT", "tensorShape": {}}}}}, {"name": "PartitionedCall/transpose_97/perm", "op": "Const", "attr": {"value": {"tensor": {"dtype": "DT_INT32", "tensorShape": {"dim": [{"size": "4"}]}}}, "dtype": {"type": "DT_INT32"}}}, {"name": "PartitionedCall/split_17", "op": "Const", "attr": {"dtype": {"type": "DT_FLOAT"}, "value": {"tensor": {"dtype": "DT_FLOAT", "tensorShape": {"dim": [{"size": "1"}, {"size": "1"}, {"size": "64"}, {"size": "64"}]}}}}}, {"name": "unknown_65", "op": "Const", "attr": {"dtype": {"type": "DT_FLOAT"}, "value": {"tensor": {"dtype": "DT_FLOAT", "tensorShape": {"dim": [{"size": "64"}]}}}}}, {"name": "PartitionedCall/transpose_98/perm", "op": "Const", "attr": {"value": {"tensor": {"dtype": "DT_INT32", "tensorShape": {"dim": [{"size": "4"}]}}}, "dtype": {"type": "DT_INT32"}}}, {"name": "PartitionedCall/moments_32/mean/reduction_indices", "op": "Const", "attr": {"dtype": {"type": "DT_INT32"}, "value": {"tensor": {"dtype": "DT_INT32", "tensorShape": {"dim": [{"size": "2"}]}}}}}, {"name": "PartitionedCall/moments_32/variance/reduction_indices", "op": "Const", "attr": {"value": {"tensor": {"dtype": "DT_INT32", "tensorShape": {"dim": [{"size": "2"}]}}}, "dtype": {"type": "DT_INT32"}}}, {"name": "PartitionedCall/onnx_tf_prefix_instancenorm_32/add/y", "op": "Const", "attr": {"dtype": {"type": "DT_FLOAT"}, "value": {"tensor": {"dtype": "DT_FLOAT", "tensorShape": {}}}}}, {"name": "PartitionedCall/Const_102", "op": "Const", "attr": {"value": {"tensor": {"dtype": "DT_INT32", "tensorShape": {"dim": [{"size": "8"}]}}}, "dtype": {"type": "DT_INT32"}}}, {"name": "PartitionedCall/All_16", "op": "Const", "attr": {"dtype": {"type": "DT_BOOL"}, "value": {"tensor": {"dtype": "DT_BOOL", "tensorShape": {}}}}}, {"name": "PartitionedCall/transpose_100/perm", "op": "Const", "attr": {"dtype": {"type": "DT_INT32"}, "value": {"tensor": {"dtype": "DT_INT32", "tensorShape": {"dim": [{"size": "4"}]}}}}}, {"name": "PartitionedCall/Reshape_81", "op": "Const", "attr": {"value": {"tensor": {"dtype": "DT_FLOAT", "tensorShape": {"dim": [{"size": "3"}, {"size": "3"}, {"size": "64"}, {"size": "1"}]}}}, "dtype": {"type": "DT_FLOAT"}}}, {"name": "unknown_67", "op": "Const", "attr": {"value": {"tensor": {"dtype": "DT_FLOAT", "tensorShape": {"dim": [{"size": "64"}]}}}, "dtype": {"type": "DT_FLOAT"}}}, {"name": "PartitionedCall/transpose_101/perm", "op": "Const", "attr": {"dtype": {"type": "DT_INT32"}, "value": {"tensor": {"dtype": "DT_INT32", "tensorShape": {"dim": [{"size": "4"}]}}}}}, {"name": "PartitionedCall/moments_33/mean/reduction_indices", "op": "Const", "attr": {"dtype": {"type": "DT_INT32"}, "value": {"tensor": {"dtype": "DT_INT32", "tensorShape": {"dim": [{"size": "2"}]}}}}}, {"name": "PartitionedCall/moments_33/variance/reduction_indices", "op": "Const", "attr": {"value": {"tensor": {"dtype": "DT_INT32", "tensorShape": {"dim": [{"size": "2"}]}}}, "dtype": {"type": "DT_INT32"}}}, {"name": "PartitionedCall/onnx_tf_prefix_instancenorm_33/add/y", "op": "Const", "attr": {"value": {"tensor": {"dtype": "DT_FLOAT", "tensorShape": {}}}, "dtype": {"type": "DT_FLOAT"}}}, {"name": "PartitionedCall/transpose_103/perm", "op": "Const", "attr": {"value": {"tensor": {"dtype": "DT_INT32", "tensorShape": {"dim": [{"size": "4"}]}}}, "dtype": {"type": "DT_INT32"}}}, {"name": "PartitionedCall/split_18", "op": "Const", "attr": {"value": {"tensor": {"dtype": "DT_FLOAT", "tensorShape": {"dim": [{"size": "1"}, {"size": "1"}, {"size": "64"}, {"size": "64"}]}}}, "dtype": {"type": "DT_FLOAT"}}}, {"name": "unknown_69", "op": "Const", "attr": {"dtype": {"type": "DT_FLOAT"}, "value": {"tensor": {"dtype": "DT_FLOAT", "tensorShape": {"dim": [{"size": "64"}]}}}}}, {"name": "PartitionedCall/transpose_104/perm", "op": "Const", "attr": {"value": {"tensor": {"dtype": "DT_INT32", "tensorShape": {"dim": [{"size": "4"}]}}}, "dtype": {"type": "DT_INT32"}}}, {"name": "PartitionedCall/moments_34/mean/reduction_indices", "op": "Const", "attr": {"dtype": {"type": "DT_INT32"}, "value": {"tensor": {"dtype": "DT_INT32", "tensorShape": {"dim": [{"size": "2"}]}}}}}, {"name": "PartitionedCall/moments_34/variance/reduction_indices", "op": "Const", "attr": {"value": {"tensor": {"dtype": "DT_INT32", "tensorShape": {"dim": [{"size": "2"}]}}}, "dtype": {"type": "DT_INT32"}}}, {"name": "PartitionedCall/onnx_tf_prefix_instancenorm_34/add/y", "op": "Const", "attr": {"dtype": {"type": "DT_FLOAT"}, "value": {"tensor": {"dtype": "DT_FLOAT", "tensorShape": {}}}}}, {"name": "PartitionedCall/Const_108", "op": "Const", "attr": {"dtype": {"type": "DT_INT32"}, "value": {"tensor": {"dtype": "DT_INT32", "tensorShape": {"dim": [{"size": "8"}]}}}}}, {"name": "PartitionedCall/All_17", "op": "Const", "attr": {"value": {"tensor": {"dtype": "DT_BOOL", "tensorShape": {}}}, "dtype": {"type": "DT_BOOL"}}}, {"name": "PartitionedCall/transpose_106/perm", "op": "Const", "attr": {"value": {"tensor": {"dtype": "DT_INT32", "tensorShape": {"dim": [{"size": "4"}]}}}, "dtype": {"type": "DT_INT32"}}}, {"name": "PartitionedCall/Reshape_86", "op": "Const", "attr": {"dtype": {"type": "DT_FLOAT"}, "value": {"tensor": {"dtype": "DT_FLOAT", "tensorShape": {"dim": [{"size": "3"}, {"size": "3"}, {"size": "64"}, {"size": "1"}]}}}}}, {"name": "unknown_71", "op": "Const", "attr": {"value": {"tensor": {"dtype": "DT_FLOAT", "tensorShape": {"dim": [{"size": "64"}]}}}, "dtype": {"type": "DT_FLOAT"}}}, {"name": "PartitionedCall/transpose_107/perm", "op": "Const", "attr": {"dtype": {"type": "DT_INT32"}, "value": {"tensor": {"dtype": "DT_INT32", "tensorShape": {"dim": [{"size": "4"}]}}}}}, {"name": "PartitionedCall/moments_35/mean/reduction_indices", "op": "Const", "attr": {"value": {"tensor": {"dtype": "DT_INT32", "tensorShape": {"dim": [{"size": "2"}]}}}, "dtype": {"type": "DT_INT32"}}}, {"name": "PartitionedCall/moments_35/variance/reduction_indices", "op": "Const", "attr": {"dtype": {"type": "DT_INT32"}, "value": {"tensor": {"dtype": "DT_INT32", "tensorShape": {"dim": [{"size": "2"}]}}}}}, {"name": "PartitionedCall/onnx_tf_prefix_instancenorm_35/add/y", "op": "Const", "attr": {"dtype": {"type": "DT_FLOAT"}, "value": {"tensor": {"dtype": "DT_FLOAT", "tensorShape": {}}}}}, {"name": "PartitionedCall/transpose_109/perm", "op": "Const", "attr": {"dtype": {"type": "DT_INT32"}, "value": {"tensor": {"dtype": "DT_INT32", "tensorShape": {"dim": [{"size": "4"}]}}}}}, {"name": "PartitionedCall/split_19", "op": "Const", "attr": {"dtype": {"type": "DT_FLOAT"}, "value": {"tensor": {"dtype": "DT_FLOAT", "tensorShape": {"dim": [{"size": "1"}, {"size": "1"}, {"size": "64"}, {"size": "64"}]}}}}}, {"name": "unknown_73", "op": "Const", "attr": {"dtype": {"type": "DT_FLOAT"}, "value": {"tensor": {"dtype": "DT_FLOAT", "tensorShape": {"dim": [{"size": "64"}]}}}}}, {"name": "PartitionedCall/transpose_110/perm", "op": "Const", "attr": {"value": {"tensor": {"dtype": "DT_INT32", "tensorShape": {"dim": [{"size": "4"}]}}}, "dtype": {"type": "DT_INT32"}}}, {"name": "PartitionedCall/moments_36/mean/reduction_indices", "op": "Const", "attr": {"dtype": {"type": "DT_INT32"}, "value": {"tensor": {"dtype": "DT_INT32", "tensorShape": {"dim": [{"size": "2"}]}}}}}, {"name": "PartitionedCall/moments_36/variance/reduction_indices", "op": "Const", "attr": {"value": {"tensor": {"dtype": "DT_INT32", "tensorShape": {"dim": [{"size": "2"}]}}}, "dtype": {"type": "DT_INT32"}}}, {"name": "PartitionedCall/onnx_tf_prefix_instancenorm_36/add/y", "op": "Const", "attr": {"dtype": {"type": "DT_FLOAT"}, "value": {"tensor": {"dtype": "DT_FLOAT", "tensorShape": {}}}}}, {"name": "PartitionedCall/Const_114", "op": "Const", "attr": {"dtype": {"type": "DT_INT32"}, "value": {"tensor": {"dtype": "DT_INT32", "tensorShape": {"dim": [{"size": "8"}]}}}}}, {"name": "PartitionedCall/All_18", "op": "Const", "attr": {"value": {"tensor": {"dtype": "DT_BOOL", "tensorShape": {}}}, "dtype": {"type": "DT_BOOL"}}}, {"name": "PartitionedCall/transpose_112/perm", "op": "Const", "attr": {"dtype": {"type": "DT_INT32"}, "value": {"tensor": {"dtype": "DT_INT32", "tensorShape": {"dim": [{"size": "4"}]}}}}}, {"name": "PartitionedCall/Reshape_91", "op": "Const", "attr": {"value": {"tensor": {"dtype": "DT_FLOAT", "tensorShape": {"dim": [{"size": "3"}, {"size": "3"}, {"size": "64"}, {"size": "1"}]}}}, "dtype": {"type": "DT_FLOAT"}}}, {"name": "unknown_75", "op": "Const", "attr": {"dtype": {"type": "DT_FLOAT"}, "value": {"tensor": {"dtype": "DT_FLOAT", "tensorShape": {"dim": [{"size": "64"}]}}}}}, {"name": "PartitionedCall/transpose_113/perm", "op": "Const", "attr": {"value": {"tensor": {"dtype": "DT_INT32", "tensorShape": {"dim": [{"size": "4"}]}}}, "dtype": {"type": "DT_INT32"}}}, {"name": "PartitionedCall/moments_37/mean/reduction_indices", "op": "Const", "attr": {"dtype": {"type": "DT_INT32"}, "value": {"tensor": {"dtype": "DT_INT32", "tensorShape": {"dim": [{"size": "2"}]}}}}}, {"name": "PartitionedCall/moments_37/variance/reduction_indices", "op": "Const", "attr": {"dtype": {"type": "DT_INT32"}, "value": {"tensor": {"dtype": "DT_INT32", "tensorShape": {"dim": [{"size": "2"}]}}}}}, {"name": "PartitionedCall/onnx_tf_prefix_instancenorm_37/add/y", "op": "Const", "attr": {"dtype": {"type": "DT_FLOAT"}, "value": {"tensor": {"dtype": "DT_FLOAT", "tensorShape": {}}}}}, {"name": "PartitionedCall/transpose_115/perm", "op": "Const", "attr": {"dtype": {"type": "DT_INT32"}, "value": {"tensor": {"dtype": "DT_INT32", "tensorShape": {"dim": [{"size": "4"}]}}}}}, {"name": "PartitionedCall/split_20", "op": "Const", "attr": {"value": {"tensor": {"dtype": "DT_FLOAT", "tensorShape": {"dim": [{"size": "1"}, {"size": "1"}, {"size": "64"}, {"size": "64"}]}}}, "dtype": {"type": "DT_FLOAT"}}}, {"name": "unknown_77", "op": "Const", "attr": {"value": {"tensor": {"dtype": "DT_FLOAT", "tensorShape": {"dim": [{"size": "64"}]}}}, "dtype": {"type": "DT_FLOAT"}}}, {"name": "PartitionedCall/transpose_116/perm", "op": "Const", "attr": {"dtype": {"type": "DT_INT32"}, "value": {"tensor": {"dtype": "DT_INT32", "tensorShape": {"dim": [{"size": "4"}]}}}}}, {"name": "PartitionedCall/moments_38/mean/reduction_indices", "op": "Const", "attr": {"dtype": {"type": "DT_INT32"}, "value": {"tensor": {"dtype": "DT_INT32", "tensorShape": {"dim": [{"size": "2"}]}}}}}, {"name": "PartitionedCall/moments_38/variance/reduction_indices", "op": "Const", "attr": {"dtype": {"type": "DT_INT32"}, "value": {"tensor": {"dtype": "DT_INT32", "tensorShape": {"dim": [{"size": "2"}]}}}}}, {"name": "PartitionedCall/onnx_tf_prefix_instancenorm_38/add/y", "op": "Const", "attr": {"dtype": {"type": "DT_FLOAT"}, "value": {"tensor": {"dtype": "DT_FLOAT", "tensorShape": {}}}}}, {"name": "PartitionedCall/transpose_118/perm", "op": "Const", "attr": {"dtype": {"type": "DT_INT32"}, "value": {"tensor": {"dtype": "DT_INT32", "tensorShape": {"dim": [{"size": "4"}]}}}}}, {"name": "PartitionedCall/Pad_2/paddings", "op": "Const", "attr": {"value": {"tensor": {"dtype": "DT_INT32", "tensorShape": {"dim": [{"size": "4"}, {"size": "2"}]}}}, "dtype": {"type": "DT_INT32"}}}, {"name": "PartitionedCall/strided_slice_6/stack", "op": "Const", "attr": {"value": {"tensor": {"dtype": "DT_INT32", "tensorShape": {"dim": [{"size": "1"}]}}}, "dtype": {"type": "DT_INT32"}}}, {"name": "PartitionedCall/strided_slice_6/stack_1", "op": "Const", "attr": {"dtype": {"type": "DT_INT32"}, "value": {"tensor": {"dtype": "DT_INT32", "tensorShape": {"dim": [{"size": "1"}]}}}}}, {"name": "PartitionedCall/strided_slice_6/stack_2", "op": "Const", "attr": {"dtype": {"type": "DT_INT32"}, "value": {"tensor": {"dtype": "DT_INT32", "tensorShape": {"dim": [{"size": "1"}]}}}}}, {"name": "unknown_79", "op": "Const", "attr": {"value": {"tensor": {"dtype": "DT_FLOAT", "tensorShape": {"dim": [{"size": "32"}]}}}, "dtype": {"type": "DT_FLOAT"}}}, {"name": "PartitionedCall/transpose_119/perm", "op": "Const", "attr": {"value": {"tensor": {"dtype": "DT_INT32", "tensorShape": {"dim": [{"size": "4"}]}}}, "dtype": {"type": "DT_INT32"}}}, {"name": "PartitionedCall/moments_39/mean/reduction_indices", "op": "Const", "attr": {"value": {"tensor": {"dtype": "DT_INT32", "tensorShape": {"dim": [{"size": "2"}]}}}, "dtype": {"type": "DT_INT32"}}}, {"name": "PartitionedCall/moments_39/variance/reduction_indices", "op": "Const", "attr": {"value": {"tensor": {"dtype": "DT_INT32", "tensorShape": {"dim": [{"size": "2"}]}}}, "dtype": {"type": "DT_INT32"}}}, {"name": "PartitionedCall/onnx_tf_prefix_instancenorm_39/add/y", "op": "Const", "attr": {"value": {"tensor": {"dtype": "DT_FLOAT", "tensorShape": {}}}, "dtype": {"type": "DT_FLOAT"}}}, {"name": "PartitionedCall/transpose_121/perm", "op": "Const", "attr": {"value": {"tensor": {"dtype": "DT_INT32", "tensorShape": {"dim": [{"size": "4"}]}}}, "dtype": {"type": "DT_INT32"}}}, {"name": "PartitionedCall/Pad_3/paddings", "op": "Const", "attr": {"dtype": {"type": "DT_INT32"}, "value": {"tensor": {"dtype": "DT_INT32", "tensorShape": {"dim": [{"size": "4"}, {"size": "2"}]}}}}}, {"name": "PartitionedCall/strided_slice_13/stack", "op": "Const", "attr": {"dtype": {"type": "DT_INT32"}, "value": {"tensor": {"dtype": "DT_INT32", "tensorShape": {"dim": [{"size": "1"}]}}}}}, {"name": "PartitionedCall/strided_slice_13/stack_1", "op": "Const", "attr": {"dtype": {"type": "DT_INT32"}, "value": {"tensor": {"dtype": "DT_INT32", "tensorShape": {"dim": [{"size": "1"}]}}}}}, {"name": "PartitionedCall/strided_slice_13/stack_2", "op": "Const", "attr": {"value": {"tensor": {"dtype": "DT_INT32", "tensorShape": {"dim": [{"size": "1"}]}}}, "dtype": {"type": "DT_INT32"}}}, {"name": "unknown_81", "op": "Const", "attr": {"value": {"tensor": {"dtype": "DT_FLOAT", "tensorShape": {"dim": [{"size": "16"}]}}}, "dtype": {"type": "DT_FLOAT"}}}, {"name": "PartitionedCall/transpose_122/perm", "op": "Const", "attr": {"dtype": {"type": "DT_INT32"}, "value": {"tensor": {"dtype": "DT_INT32", "tensorShape": {"dim": [{"size": "4"}]}}}}}, {"name": "PartitionedCall/moments_40/mean/reduction_indices", "op": "Const", "attr": {"dtype": {"type": "DT_INT32"}, "value": {"tensor": {"dtype": "DT_INT32", "tensorShape": {"dim": [{"size": "2"}]}}}}}, {"name": "PartitionedCall/moments_40/variance/reduction_indices", "op": "Const", "attr": {"value": {"tensor": {"dtype": "DT_INT32", "tensorShape": {"dim": [{"size": "2"}]}}}, "dtype": {"type": "DT_INT32"}}}, {"name": "PartitionedCall/onnx_tf_prefix_instancenorm_40/add/y", "op": "Const", "attr": {"value": {"tensor": {"dtype": "DT_FLOAT", "tensorShape": {}}}, "dtype": {"type": "DT_FLOAT"}}}, {"name": "PartitionedCall/Const_124", "op": "Const", "attr": {"value": {"tensor": {"dtype": "DT_INT32", "tensorShape": {"dim": [{"size": "8"}]}}}, "dtype": {"type": "DT_INT32"}}}, {"name": "PartitionedCall/All_19", "op": "Const", "attr": {"dtype": {"type": "DT_BOOL"}, "value": {"tensor": {"dtype": "DT_BOOL", "tensorShape": {}}}}}, {"name": "PartitionedCall/transpose_124/perm", "op": "Const", "attr": {"dtype": {"type": "DT_INT32"}, "value": {"tensor": {"dtype": "DT_INT32", "tensorShape": {"dim": [{"size": "4"}]}}}}}, {"name": "PartitionedCall/split_23", "op": "Const", "attr": {"dtype": {"type": "DT_FLOAT"}, "value": {"tensor": {"dtype": "DT_FLOAT", "tensorShape": {"dim": [{"size": "7"}, {"size": "7"}, {"size": "16"}, {"size": "3"}]}}}}}, {"name": "unknown_83", "op": "Const", "attr": {"dtype": {"type": "DT_FLOAT"}, "value": {"tensor": {"dtype": "DT_FLOAT", "tensorShape": {"dim": [{"size": "3"}]}}}}}, {"name": "PartitionedCall/transpose_125/perm", "op": "Const", "attr": {"dtype": {"type": "DT_INT32"}, "value": {"tensor": {"dtype": "DT_INT32", "tensorShape": {"dim": [{"size": "4"}]}}}}}, {"name": "PartitionedCall/Reshape_100/shape", "op": "Const", "attr": {"dtype": {"type": "DT_INT32"}, "value": {"tensor": {"dtype": "DT_INT32", "tensorShape": {"dim": [{"size": "4"}]}}}}}, {"name": "unknown", "op": "Placeholder", "attr": {"dtype": {"type": "DT_FLOAT"}, "shape": {"shape": {"dim": [{"size": "1"}, {"size": "3"}, {"size": "256"}, {"size": "256"}]}}}}, {"name": "PartitionedCall/cond/PartitionedCall/Const_2/_91", "op": "Switch", "input": ["PartitionedCall/Const_2", "PartitionedCall/All"], "attr": {"T": {"type": "DT_INT32"}}}, {"name": "PartitionedCall/cond/switch_pred/_88", "op": "Switch", "input": ["PartitionedCall/All", "PartitionedCall/All"], "attr": {"T": {"type": "DT_BOOL"}}}, {"name": "PartitionedCall/cond_1/PartitionedCall/Const_12/_100", "op": "Switch", "input": ["PartitionedCall/Const_12", "PartitionedCall/All_1"], "attr": {"T": {"type": "DT_INT32"}}}, {"name": "PartitionedCall/cond_1/switch_pred/_97", "op": "Switch", "input": ["PartitionedCall/All_1", "PartitionedCall/All_1"], "attr": {"T": {"type": "DT_BOOL"}}}, {"name": "PartitionedCall/cond_2/PartitionedCall/Const_18/_109", "op": "Switch", "input": ["PartitionedCall/Const_18", "PartitionedCall/All_2"], "attr": {"T": {"type": "DT_INT32"}}}, {"name": "PartitionedCall/cond_2/switch_pred/_106", "op": "Switch", "input": ["PartitionedCall/All_2", "PartitionedCall/All_2"], "attr": {"T": {"type": "DT_BOOL"}}}, {"name": "PartitionedCall/cond_3/PartitionedCall/Const_24/_118", "op": "Switch", "input": ["PartitionedCall/Const_24", "PartitionedCall/All_3"], "attr": {"T": {"type": "DT_INT32"}}}, {"name": "PartitionedCall/cond_3/switch_pred/_115", "op": "Switch", "input": ["PartitionedCall/All_3", "PartitionedCall/All_3"], "attr": {"T": {"type": "DT_BOOL"}}}, {"name": "PartitionedCall/cond_4/PartitionedCall/Const_30/_127", "op": "Switch", "input": ["PartitionedCall/Const_30", "PartitionedCall/All_4"], "attr": {"T": {"type": "DT_INT32"}}}, {"name": "PartitionedCall/cond_4/switch_pred/_124", "op": "Switch", "input": ["PartitionedCall/All_4", "PartitionedCall/All_4"], "attr": {"T": {"type": "DT_BOOL"}}}, {"name": "PartitionedCall/cond_5/PartitionedCall/Const_36/_136", "op": "Switch", "input": ["PartitionedCall/Const_36", "PartitionedCall/All_5"], "attr": {"T": {"type": "DT_INT32"}}}, {"name": "PartitionedCall/cond_5/switch_pred/_133", "op": "Switch", "input": ["PartitionedCall/All_5", "PartitionedCall/All_5"], "attr": {"T": {"type": "DT_BOOL"}}}, {"name": "PartitionedCall/cond_6/PartitionedCall/Const_42/_145", "op": "Switch", "input": ["PartitionedCall/Const_42", "PartitionedCall/All_6"], "attr": {"T": {"type": "DT_INT32"}}}, {"name": "PartitionedCall/cond_6/switch_pred/_142", "op": "Switch", "input": ["PartitionedCall/All_6", "PartitionedCall/All_6"], "attr": {"T": {"type": "DT_BOOL"}}}, {"name": "PartitionedCall/cond_7/PartitionedCall/Const_48/_154", "op": "Switch", "input": ["PartitionedCall/Const_48", "PartitionedCall/All_7"], "attr": {"T": {"type": "DT_INT32"}}}, {"name": "PartitionedCall/cond_7/switch_pred/_151", "op": "Switch", "input": ["PartitionedCall/All_7", "PartitionedCall/All_7"], "attr": {"T": {"type": "DT_BOOL"}}}, {"name": "PartitionedCall/cond_8/PartitionedCall/Const_54/_163", "op": "Switch", "input": ["PartitionedCall/Const_54", "PartitionedCall/All_8"], "attr": {"T": {"type": "DT_INT32"}}}, {"name": "PartitionedCall/cond_8/switch_pred/_160", "op": "Switch", "input": ["PartitionedCall/All_8", "PartitionedCall/All_8"], "attr": {"T": {"type": "DT_BOOL"}}}, {"name": "PartitionedCall/cond_9/PartitionedCall/Const_60/_172", "op": "Switch", "input": ["PartitionedCall/Const_60", "PartitionedCall/All_9"], "attr": {"T": {"type": "DT_INT32"}}}, {"name": "PartitionedCall/cond_9/switch_pred/_169", "op": "Switch", "input": ["PartitionedCall/All_9", "PartitionedCall/All_9"], "attr": {"T": {"type": "DT_BOOL"}}}, {"name": "PartitionedCall/cond_10/PartitionedCall/Const_66/_181", "op": "Switch", "input": ["PartitionedCall/Const_66", "PartitionedCall/All_10"], "attr": {"T": {"type": "DT_INT32"}}}, {"name": "PartitionedCall/cond_10/switch_pred/_178", "op": "Switch", "input": ["PartitionedCall/All_10", "PartitionedCall/All_10"], "attr": {"T": {"type": "DT_BOOL"}}}, {"name": "PartitionedCall/cond_11/PartitionedCall/Const_72/_190", "op": "Switch", "input": ["PartitionedCall/Const_72", "PartitionedCall/All_11"], "attr": {"T": {"type": "DT_INT32"}}}, {"name": "PartitionedCall/cond_11/switch_pred/_187", "op": "Switch", "input": ["PartitionedCall/All_11", "PartitionedCall/All_11"], "attr": {"T": {"type": "DT_BOOL"}}}, {"name": "PartitionedCall/cond_12/PartitionedCall/Const_78/_199", "op": "Switch", "input": ["PartitionedCall/Const_78", "PartitionedCall/All_12"], "attr": {"T": {"type": "DT_INT32"}}}, {"name": "PartitionedCall/cond_12/switch_pred/_196", "op": "Switch", "input": ["PartitionedCall/All_12", "PartitionedCall/All_12"], "attr": {"T": {"type": "DT_BOOL"}}}, {"name": "PartitionedCall/cond_13/PartitionedCall/Const_84/_208", "op": "Switch", "input": ["PartitionedCall/Const_84", "PartitionedCall/All_13"], "attr": {"T": {"type": "DT_INT32"}}}, {"name": "PartitionedCall/cond_13/switch_pred/_205", "op": "Switch", "input": ["PartitionedCall/All_13", "PartitionedCall/All_13"], "attr": {"T": {"type": "DT_BOOL"}}}, {"name": "PartitionedCall/cond_14/PartitionedCall/Const_90/_217", "op": "Switch", "input": ["PartitionedCall/Const_90", "PartitionedCall/All_14"], "attr": {"T": {"type": "DT_INT32"}}}, {"name": "PartitionedCall/cond_14/switch_pred/_214", "op": "Switch", "input": ["PartitionedCall/All_14", "PartitionedCall/All_14"], "attr": {"T": {"type": "DT_BOOL"}}}, {"name": "PartitionedCall/cond_15/PartitionedCall/Const_96/_226", "op": "Switch", "input": ["PartitionedCall/Const_96", "PartitionedCall/All_15"], "attr": {"T": {"type": "DT_INT32"}}}, {"name": "PartitionedCall/cond_15/switch_pred/_223", "op": "Switch", "input": ["PartitionedCall/All_15", "PartitionedCall/All_15"], "attr": {"T": {"type": "DT_BOOL"}}}, {"name": "PartitionedCall/cond_16/PartitionedCall/Const_102/_235", "op": "Switch", "input": ["PartitionedCall/Const_102", "PartitionedCall/All_16"], "attr": {"T": {"type": "DT_INT32"}}}, {"name": "PartitionedCall/cond_16/switch_pred/_232", "op": "Switch", "input": ["PartitionedCall/All_16", "PartitionedCall/All_16"], "attr": {"T": {"type": "DT_BOOL"}}}, {"name": "PartitionedCall/cond_17/PartitionedCall/Const_108/_244", "op": "Switch", "input": ["PartitionedCall/Const_108", "PartitionedCall/All_17"], "attr": {"T": {"type": "DT_INT32"}}}, {"name": "PartitionedCall/cond_17/switch_pred/_241", "op": "Switch", "input": ["PartitionedCall/All_17", "PartitionedCall/All_17"], "attr": {"T": {"type": "DT_BOOL"}}}, {"name": "PartitionedCall/cond_18/PartitionedCall/Const_114/_253", "op": "Switch", "input": ["PartitionedCall/Const_114", "PartitionedCall/All_18"], "attr": {"T": {"type": "DT_INT32"}}}, {"name": "PartitionedCall/cond_18/switch_pred/_250", "op": "Switch", "input": ["PartitionedCall/All_18", "PartitionedCall/All_18"], "attr": {"T": {"type": "DT_BOOL"}}}, {"name": "PartitionedCall/cond_19/PartitionedCall/Const_124/_262", "op": "Switch", "input": ["PartitionedCall/Const_124", "PartitionedCall/All_19"], "attr": {"T": {"type": "DT_INT32"}}}, {"name": "PartitionedCall/cond_19/switch_pred/_259", "op": "Switch", "input": ["PartitionedCall/All_19", "PartitionedCall/All_19"], "attr": {"T": {"type": "DT_BOOL"}}}, {"name": "PartitionedCall/clip_by_value/Minimum", "op": "Minimum", "input": ["unknown", "PartitionedCall/clip_by_value/Minimum/y"], "attr": {"T": {"type": "DT_FLOAT"}}}, {"name": "PartitionedCall/cond/pivot_f/_89", "op": "Identity", "input": ["PartitionedCall/cond/switch_pred/_88"], "attr": {"T": {"type": "DT_BOOL"}}}, {"name": "PartitionedCall/cond_1/pivot_f/_98", "op": "Identity", "input": ["PartitionedCall/cond_1/switch_pred/_97"], "attr": {"T": {"type": "DT_BOOL"}}}, {"name": "PartitionedCall/cond_2/pivot_f/_107", "op": "Identity", "input": ["PartitionedCall/cond_2/switch_pred/_106"], "attr": {"T": {"type": "DT_BOOL"}}}, {"name": "PartitionedCall/cond_3/pivot_f/_116", "op": "Identity", "input": ["PartitionedCall/cond_3/switch_pred/_115"], "attr": {"T": {"type": "DT_BOOL"}}}, {"name": "PartitionedCall/cond_4/pivot_f/_125", "op": "Identity", "input": ["PartitionedCall/cond_4/switch_pred/_124"], "attr": {"T": {"type": "DT_BOOL"}}}, {"name": "PartitionedCall/cond_5/pivot_f/_134", "op": "Identity", "input": ["PartitionedCall/cond_5/switch_pred/_133"], "attr": {"T": {"type": "DT_BOOL"}}}, {"name": "PartitionedCall/cond_6/pivot_f/_143", "op": "Identity", "input": ["PartitionedCall/cond_6/switch_pred/_142"], "attr": {"T": {"type": "DT_BOOL"}}}, {"name": "PartitionedCall/cond_7/pivot_f/_152", "op": "Identity", "input": ["PartitionedCall/cond_7/switch_pred/_151"], "attr": {"T": {"type": "DT_BOOL"}}}, {"name": "PartitionedCall/cond_8/pivot_f/_161", "op": "Identity", "input": ["PartitionedCall/cond_8/switch_pred/_160"], "attr": {"T": {"type": "DT_BOOL"}}}, {"name": "PartitionedCall/cond_9/pivot_f/_170", "op": "Identity", "input": ["PartitionedCall/cond_9/switch_pred/_169"], "attr": {"T": {"type": "DT_BOOL"}}}, {"name": "PartitionedCall/cond_10/pivot_f/_179", "op": "Identity", "input": ["PartitionedCall/cond_10/switch_pred/_178"], "attr": {"T": {"type": "DT_BOOL"}}}, {"name": "PartitionedCall/cond_11/pivot_f/_188", "op": "Identity", "input": ["PartitionedCall/cond_11/switch_pred/_187"], "attr": {"T": {"type": "DT_BOOL"}}}, {"name": "PartitionedCall/cond_12/pivot_f/_197", "op": "Identity", "input": ["PartitionedCall/cond_12/switch_pred/_196"], "attr": {"T": {"type": "DT_BOOL"}}}, {"name": "PartitionedCall/cond_13/pivot_f/_206", "op": "Identity", "input": ["PartitionedCall/cond_13/switch_pred/_205"], "attr": {"T": {"type": "DT_BOOL"}}}, {"name": "PartitionedCall/cond_14/pivot_f/_215", "op": "Identity", "input": ["PartitionedCall/cond_14/switch_pred/_214"], "attr": {"T": {"type": "DT_BOOL"}}}, {"name": "PartitionedCall/cond_15/pivot_f/_224", "op": "Identity", "input": ["PartitionedCall/cond_15/switch_pred/_223"], "attr": {"T": {"type": "DT_BOOL"}}}, {"name": "PartitionedCall/cond_16/pivot_f/_233", "op": "Identity", "input": ["PartitionedCall/cond_16/switch_pred/_232"], "attr": {"T": {"type": "DT_BOOL"}}}, {"name": "PartitionedCall/cond_17/pivot_f/_242", "op": "Identity", "input": ["PartitionedCall/cond_17/switch_pred/_241"], "attr": {"T": {"type": "DT_BOOL"}}}, {"name": "PartitionedCall/cond_18/pivot_f/_251", "op": "Identity", "input": ["PartitionedCall/cond_18/switch_pred/_250"], "attr": {"T": {"type": "DT_BOOL"}}}, {"name": "PartitionedCall/cond_19/pivot_f/_260", "op": "Identity", "input": ["PartitionedCall/cond_19/switch_pred/_259"], "attr": {"T": {"type": "DT_BOOL"}}}, {"name": "PartitionedCall/clip_by_value", "op": "Maximum", "input": ["PartitionedCall/clip_by_value/Minimum", "PartitionedCall/clip_by_value/y"], "attr": {"T": {"type": "DT_FLOAT"}}}, {"name": "PartitionedCall/cond/else/_87/cond/Shape", "op": "Const", "input": ["^PartitionedCall/cond/pivot_f/_89"], "attr": {"dtype": {"type": "DT_INT32"}, "value": {"tensor": {"dtype": "DT_INT32", "tensorShape": {"dim": [{"size": "4"}]}}}}}, {"name": "PartitionedCall/cond/else/_87/cond/range_1", "op": "Const", "input": ["^PartitionedCall/cond/pivot_f/_89"], "attr": {"dtype": {"type": "DT_INT32"}, "value": {"tensor": {"dtype": "DT_INT32", "tensorShape": {"dim": [{"size": "4"}]}}}}}, {"name": "PartitionedCall/cond/else/_87/cond/GatherV2_1/axis", "op": "Const", "input": ["^PartitionedCall/cond/pivot_f/_89"], "attr": {"dtype": {"type": "DT_INT32"}, "value": {"tensor": {"dtype": "DT_INT32", "tensorShape": {}}}}}, {"name": "PartitionedCall/cond/else/_87/cond/range", "op": "Const", "input": ["^PartitionedCall/cond/pivot_f/_89"], "attr": {"dtype": {"type": "DT_INT32"}, "value": {"tensor": {"dtype": "DT_INT32", "tensorShape": {"dim": [{"size": "4"}]}}}}}, {"name": "PartitionedCall/cond/else/_87/cond/GatherV2/axis", "op": "Const", "input": ["^PartitionedCall/cond/pivot_f/_89"], "attr": {"dtype": {"type": "DT_INT32"}, "value": {"tensor": {"dtype": "DT_INT32", "tensorShape": {}}}}}, {"name": "PartitionedCall/cond_1/else/_96/cond_1/range_1", "op": "Const", "input": ["^PartitionedCall/cond_1/pivot_f/_98"], "attr": {"value": {"tensor": {"dtype": "DT_INT32", "tensorShape": {"dim": [{"size": "4"}]}}}, "dtype": {"type": "DT_INT32"}}}, {"name": "PartitionedCall/cond_1/else/_96/cond_1/GatherV2_1/axis", "op": "Const", "input": ["^PartitionedCall/cond_1/pivot_f/_98"], "attr": {"value": {"tensor": {"dtype": "DT_INT32", "tensorShape": {}}}, "dtype": {"type": "DT_INT32"}}}, {"name": "PartitionedCall/cond_1/else/_96/cond_1/range", "op": "Const", "input": ["^PartitionedCall/cond_1/pivot_f/_98"], "attr": {"value": {"tensor": {"dtype": "DT_INT32", "tensorShape": {"dim": [{"size": "4"}]}}}, "dtype": {"type": "DT_INT32"}}}, {"name": "PartitionedCall/cond_1/else/_96/cond_1/GatherV2/axis", "op": "Const", "input": ["^PartitionedCall/cond_1/pivot_f/_98"], "attr": {"value": {"tensor": {"dtype": "DT_INT32", "tensorShape": {}}}, "dtype": {"type": "DT_INT32"}}}, {"name": "PartitionedCall/cond_2/else/_105/cond_2/range_1", "op": "Const", "input": ["^PartitionedCall/cond_2/pivot_f/_107"], "attr": {"value": {"tensor": {"dtype": "DT_INT32", "tensorShape": {"dim": [{"size": "4"}]}}}, "dtype": {"type": "DT_INT32"}}}, {"name": "PartitionedCall/cond_2/else/_105/cond_2/GatherV2_1/axis", "op": "Const", "input": ["^PartitionedCall/cond_2/pivot_f/_107"], "attr": {"value": {"tensor": {"dtype": "DT_INT32", "tensorShape": {}}}, "dtype": {"type": "DT_INT32"}}}, {"name": "PartitionedCall/cond_2/else/_105/cond_2/range", "op": "Const", "input": ["^PartitionedCall/cond_2/pivot_f/_107"], "attr": {"dtype": {"type": "DT_INT32"}, "value": {"tensor": {"dtype": "DT_INT32", "tensorShape": {"dim": [{"size": "4"}]}}}}}, {"name": "PartitionedCall/cond_2/else/_105/cond_2/GatherV2/axis", "op": "Const", "input": ["^PartitionedCall/cond_2/pivot_f/_107"], "attr": {"value": {"tensor": {"dtype": "DT_INT32", "tensorShape": {}}}, "dtype": {"type": "DT_INT32"}}}, {"name": "PartitionedCall/cond_3/else/_114/cond_3/range_1", "op": "Const", "input": ["^PartitionedCall/cond_3/pivot_f/_116"], "attr": {"dtype": {"type": "DT_INT32"}, "value": {"tensor": {"dtype": "DT_INT32", "tensorShape": {"dim": [{"size": "4"}]}}}}}, {"name": "PartitionedCall/cond_3/else/_114/cond_3/GatherV2_1/axis", "op": "Const", "input": ["^PartitionedCall/cond_3/pivot_f/_116"], "attr": {"dtype": {"type": "DT_INT32"}, "value": {"tensor": {"dtype": "DT_INT32", "tensorShape": {}}}}}, {"name": "PartitionedCall/cond_3/else/_114/cond_3/range", "op": "Const", "input": ["^PartitionedCall/cond_3/pivot_f/_116"], "attr": {"dtype": {"type": "DT_INT32"}, "value": {"tensor": {"dtype": "DT_INT32", "tensorShape": {"dim": [{"size": "4"}]}}}}}, {"name": "PartitionedCall/cond_3/else/_114/cond_3/GatherV2/axis", "op": "Const", "input": ["^PartitionedCall/cond_3/pivot_f/_116"], "attr": {"value": {"tensor": {"dtype": "DT_INT32", "tensorShape": {}}}, "dtype": {"type": "DT_INT32"}}}, {"name": "PartitionedCall/cond_4/else/_123/cond_4/range_1", "op": "Const", "input": ["^PartitionedCall/cond_4/pivot_f/_125"], "attr": {"dtype": {"type": "DT_INT32"}, "value": {"tensor": {"dtype": "DT_INT32", "tensorShape": {"dim": [{"size": "4"}]}}}}}, {"name": "PartitionedCall/cond_4/else/_123/cond_4/GatherV2_1/axis", "op": "Const", "input": ["^PartitionedCall/cond_4/pivot_f/_125"], "attr": {"dtype": {"type": "DT_INT32"}, "value": {"tensor": {"dtype": "DT_INT32", "tensorShape": {}}}}}, {"name": "PartitionedCall/cond_4/else/_123/cond_4/range", "op": "Const", "input": ["^PartitionedCall/cond_4/pivot_f/_125"], "attr": {"dtype": {"type": "DT_INT32"}, "value": {"tensor": {"dtype": "DT_INT32", "tensorShape": {"dim": [{"size": "4"}]}}}}}, {"name": "PartitionedCall/cond_4/else/_123/cond_4/GatherV2/axis", "op": "Const", "input": ["^PartitionedCall/cond_4/pivot_f/_125"], "attr": {"value": {"tensor": {"dtype": "DT_INT32", "tensorShape": {}}}, "dtype": {"type": "DT_INT32"}}}, {"name": "PartitionedCall/cond_5/else/_132/cond_5/range_1", "op": "Const", "input": ["^PartitionedCall/cond_5/pivot_f/_134"], "attr": {"dtype": {"type": "DT_INT32"}, "value": {"tensor": {"dtype": "DT_INT32", "tensorShape": {"dim": [{"size": "4"}]}}}}}, {"name": "PartitionedCall/cond_5/else/_132/cond_5/GatherV2_1/axis", "op": "Const", "input": ["^PartitionedCall/cond_5/pivot_f/_134"], "attr": {"value": {"tensor": {"dtype": "DT_INT32", "tensorShape": {}}}, "dtype": {"type": "DT_INT32"}}}, {"name": "PartitionedCall/cond_5/else/_132/cond_5/range", "op": "Const", "input": ["^PartitionedCall/cond_5/pivot_f/_134"], "attr": {"value": {"tensor": {"dtype": "DT_INT32", "tensorShape": {"dim": [{"size": "4"}]}}}, "dtype": {"type": "DT_INT32"}}}, {"name": "PartitionedCall/cond_5/else/_132/cond_5/GatherV2/axis", "op": "Const", "input": ["^PartitionedCall/cond_5/pivot_f/_134"], "attr": {"value": {"tensor": {"dtype": "DT_INT32", "tensorShape": {}}}, "dtype": {"type": "DT_INT32"}}}, {"name": "PartitionedCall/cond_6/else/_141/cond_6/range_1", "op": "Const", "input": ["^PartitionedCall/cond_6/pivot_f/_143"], "attr": {"value": {"tensor": {"dtype": "DT_INT32", "tensorShape": {"dim": [{"size": "4"}]}}}, "dtype": {"type": "DT_INT32"}}}, {"name": "PartitionedCall/cond_6/else/_141/cond_6/GatherV2_1/axis", "op": "Const", "input": ["^PartitionedCall/cond_6/pivot_f/_143"], "attr": {"value": {"tensor": {"dtype": "DT_INT32", "tensorShape": {}}}, "dtype": {"type": "DT_INT32"}}}, {"name": "PartitionedCall/cond_6/else/_141/cond_6/range", "op": "Const", "input": ["^PartitionedCall/cond_6/pivot_f/_143"], "attr": {"value": {"tensor": {"dtype": "DT_INT32", "tensorShape": {"dim": [{"size": "4"}]}}}, "dtype": {"type": "DT_INT32"}}}, {"name": "PartitionedCall/cond_6/else/_141/cond_6/GatherV2/axis", "op": "Const", "input": ["^PartitionedCall/cond_6/pivot_f/_143"], "attr": {"value": {"tensor": {"dtype": "DT_INT32", "tensorShape": {}}}, "dtype": {"type": "DT_INT32"}}}, {"name": "PartitionedCall/cond_7/else/_150/cond_7/range_1", "op": "Const", "input": ["^PartitionedCall/cond_7/pivot_f/_152"], "attr": {"dtype": {"type": "DT_INT32"}, "value": {"tensor": {"dtype": "DT_INT32", "tensorShape": {"dim": [{"size": "4"}]}}}}}, {"name": "PartitionedCall/cond_7/else/_150/cond_7/GatherV2_1/axis", "op": "Const", "input": ["^PartitionedCall/cond_7/pivot_f/_152"], "attr": {"value": {"tensor": {"dtype": "DT_INT32", "tensorShape": {}}}, "dtype": {"type": "DT_INT32"}}}, {"name": "PartitionedCall/cond_7/else/_150/cond_7/range", "op": "Const", "input": ["^PartitionedCall/cond_7/pivot_f/_152"], "attr": {"dtype": {"type": "DT_INT32"}, "value": {"tensor": {"dtype": "DT_INT32", "tensorShape": {"dim": [{"size": "4"}]}}}}}, {"name": "PartitionedCall/cond_7/else/_150/cond_7/GatherV2/axis", "op": "Const", "input": ["^PartitionedCall/cond_7/pivot_f/_152"], "attr": {"dtype": {"type": "DT_INT32"}, "value": {"tensor": {"dtype": "DT_INT32", "tensorShape": {}}}}}, {"name": "PartitionedCall/cond_8/else/_159/cond_8/range_1", "op": "Const", "input": ["^PartitionedCall/cond_8/pivot_f/_161"], "attr": {"value": {"tensor": {"dtype": "DT_INT32", "tensorShape": {"dim": [{"size": "4"}]}}}, "dtype": {"type": "DT_INT32"}}}, {"name": "PartitionedCall/cond_8/else/_159/cond_8/GatherV2_1/axis", "op": "Const", "input": ["^PartitionedCall/cond_8/pivot_f/_161"], "attr": {"dtype": {"type": "DT_INT32"}, "value": {"tensor": {"dtype": "DT_INT32", "tensorShape": {}}}}}, {"name": "PartitionedCall/cond_8/else/_159/cond_8/range", "op": "Const", "input": ["^PartitionedCall/cond_8/pivot_f/_161"], "attr": {"value": {"tensor": {"dtype": "DT_INT32", "tensorShape": {"dim": [{"size": "4"}]}}}, "dtype": {"type": "DT_INT32"}}}, {"name": "PartitionedCall/cond_8/else/_159/cond_8/GatherV2/axis", "op": "Const", "input": ["^PartitionedCall/cond_8/pivot_f/_161"], "attr": {"value": {"tensor": {"dtype": "DT_INT32", "tensorShape": {}}}, "dtype": {"type": "DT_INT32"}}}, {"name": "PartitionedCall/cond_9/else/_168/cond_9/range_1", "op": "Const", "input": ["^PartitionedCall/cond_9/pivot_f/_170"], "attr": {"value": {"tensor": {"dtype": "DT_INT32", "tensorShape": {"dim": [{"size": "4"}]}}}, "dtype": {"type": "DT_INT32"}}}, {"name": "PartitionedCall/cond_9/else/_168/cond_9/GatherV2_1/axis", "op": "Const", "input": ["^PartitionedCall/cond_9/pivot_f/_170"], "attr": {"dtype": {"type": "DT_INT32"}, "value": {"tensor": {"dtype": "DT_INT32", "tensorShape": {}}}}}, {"name": "PartitionedCall/cond_9/else/_168/cond_9/range", "op": "Const", "input": ["^PartitionedCall/cond_9/pivot_f/_170"], "attr": {"value": {"tensor": {"dtype": "DT_INT32", "tensorShape": {"dim": [{"size": "4"}]}}}, "dtype": {"type": "DT_INT32"}}}, {"name": "PartitionedCall/cond_9/else/_168/cond_9/GatherV2/axis", "op": "Const", "input": ["^PartitionedCall/cond_9/pivot_f/_170"], "attr": {"dtype": {"type": "DT_INT32"}, "value": {"tensor": {"dtype": "DT_INT32", "tensorShape": {}}}}}, {"name": "PartitionedCall/cond_10/else/_177/cond_10/range_1", "op": "Const", "input": ["^PartitionedCall/cond_10/pivot_f/_179"], "attr": {"dtype": {"type": "DT_INT32"}, "value": {"tensor": {"dtype": "DT_INT32", "tensorShape": {"dim": [{"size": "4"}]}}}}}, {"name": "PartitionedCall/cond_10/else/_177/cond_10/GatherV2_1/axis", "op": "Const", "input": ["^PartitionedCall/cond_10/pivot_f/_179"], "attr": {"value": {"tensor": {"dtype": "DT_INT32", "tensorShape": {}}}, "dtype": {"type": "DT_INT32"}}}, {"name": "PartitionedCall/cond_10/else/_177/cond_10/range", "op": "Const", "input": ["^PartitionedCall/cond_10/pivot_f/_179"], "attr": {"dtype": {"type": "DT_INT32"}, "value": {"tensor": {"dtype": "DT_INT32", "tensorShape": {"dim": [{"size": "4"}]}}}}}, {"name": "PartitionedCall/cond_10/else/_177/cond_10/GatherV2/axis", "op": "Const", "input": ["^PartitionedCall/cond_10/pivot_f/_179"], "attr": {"value": {"tensor": {"dtype": "DT_INT32", "tensorShape": {}}}, "dtype": {"type": "DT_INT32"}}}, {"name": "PartitionedCall/cond_11/else/_186/cond_11/range_1", "op": "Const", "input": ["^PartitionedCall/cond_11/pivot_f/_188"], "attr": {"value": {"tensor": {"dtype": "DT_INT32", "tensorShape": {"dim": [{"size": "4"}]}}}, "dtype": {"type": "DT_INT32"}}}, {"name": "PartitionedCall/cond_11/else/_186/cond_11/GatherV2_1/axis", "op": "Const", "input": ["^PartitionedCall/cond_11/pivot_f/_188"], "attr": {"dtype": {"type": "DT_INT32"}, "value": {"tensor": {"dtype": "DT_INT32", "tensorShape": {}}}}}, {"name": "PartitionedCall/cond_11/else/_186/cond_11/range", "op": "Const", "input": ["^PartitionedCall/cond_11/pivot_f/_188"], "attr": {"dtype": {"type": "DT_INT32"}, "value": {"tensor": {"dtype": "DT_INT32", "tensorShape": {"dim": [{"size": "4"}]}}}}}, {"name": "PartitionedCall/cond_11/else/_186/cond_11/GatherV2/axis", "op": "Const", "input": ["^PartitionedCall/cond_11/pivot_f/_188"], "attr": {"value": {"tensor": {"dtype": "DT_INT32", "tensorShape": {}}}, "dtype": {"type": "DT_INT32"}}}, {"name": "PartitionedCall/cond_12/else/_195/cond_12/range_1", "op": "Const", "input": ["^PartitionedCall/cond_12/pivot_f/_197"], "attr": {"value": {"tensor": {"dtype": "DT_INT32", "tensorShape": {"dim": [{"size": "4"}]}}}, "dtype": {"type": "DT_INT32"}}}, {"name": "PartitionedCall/cond_12/else/_195/cond_12/GatherV2_1/axis", "op": "Const", "input": ["^PartitionedCall/cond_12/pivot_f/_197"], "attr": {"dtype": {"type": "DT_INT32"}, "value": {"tensor": {"dtype": "DT_INT32", "tensorShape": {}}}}}, {"name": "PartitionedCall/cond_12/else/_195/cond_12/range", "op": "Const", "input": ["^PartitionedCall/cond_12/pivot_f/_197"], "attr": {"value": {"tensor": {"dtype": "DT_INT32", "tensorShape": {"dim": [{"size": "4"}]}}}, "dtype": {"type": "DT_INT32"}}}, {"name": "PartitionedCall/cond_12/else/_195/cond_12/GatherV2/axis", "op": "Const", "input": ["^PartitionedCall/cond_12/pivot_f/_197"], "attr": {"dtype": {"type": "DT_INT32"}, "value": {"tensor": {"dtype": "DT_INT32", "tensorShape": {}}}}}, {"name": "PartitionedCall/cond_13/else/_204/cond_13/range_1", "op": "Const", "input": ["^PartitionedCall/cond_13/pivot_f/_206"], "attr": {"dtype": {"type": "DT_INT32"}, "value": {"tensor": {"dtype": "DT_INT32", "tensorShape": {"dim": [{"size": "4"}]}}}}}, {"name": "PartitionedCall/cond_13/else/_204/cond_13/GatherV2_1/axis", "op": "Const", "input": ["^PartitionedCall/cond_13/pivot_f/_206"], "attr": {"value": {"tensor": {"dtype": "DT_INT32", "tensorShape": {}}}, "dtype": {"type": "DT_INT32"}}}, {"name": "PartitionedCall/cond_13/else/_204/cond_13/range", "op": "Const", "input": ["^PartitionedCall/cond_13/pivot_f/_206"], "attr": {"value": {"tensor": {"dtype": "DT_INT32", "tensorShape": {"dim": [{"size": "4"}]}}}, "dtype": {"type": "DT_INT32"}}}, {"name": "PartitionedCall/cond_13/else/_204/cond_13/GatherV2/axis", "op": "Const", "input": ["^PartitionedCall/cond_13/pivot_f/_206"], "attr": {"dtype": {"type": "DT_INT32"}, "value": {"tensor": {"dtype": "DT_INT32", "tensorShape": {}}}}}, {"name": "PartitionedCall/cond_14/else/_213/cond_14/range_1", "op": "Const", "input": ["^PartitionedCall/cond_14/pivot_f/_215"], "attr": {"value": {"tensor": {"dtype": "DT_INT32", "tensorShape": {"dim": [{"size": "4"}]}}}, "dtype": {"type": "DT_INT32"}}}, {"name": "PartitionedCall/cond_14/else/_213/cond_14/GatherV2_1/axis", "op": "Const", "input": ["^PartitionedCall/cond_14/pivot_f/_215"], "attr": {"value": {"tensor": {"dtype": "DT_INT32", "tensorShape": {}}}, "dtype": {"type": "DT_INT32"}}}, {"name": "PartitionedCall/cond_14/else/_213/cond_14/range", "op": "Const", "input": ["^PartitionedCall/cond_14/pivot_f/_215"], "attr": {"value": {"tensor": {"dtype": "DT_INT32", "tensorShape": {"dim": [{"size": "4"}]}}}, "dtype": {"type": "DT_INT32"}}}, {"name": "PartitionedCall/cond_14/else/_213/cond_14/GatherV2/axis", "op": "Const", "input": ["^PartitionedCall/cond_14/pivot_f/_215"], "attr": {"dtype": {"type": "DT_INT32"}, "value": {"tensor": {"dtype": "DT_INT32", "tensorShape": {}}}}}, {"name": "PartitionedCall/cond_15/else/_222/cond_15/range_1", "op": "Const", "input": ["^PartitionedCall/cond_15/pivot_f/_224"], "attr": {"dtype": {"type": "DT_INT32"}, "value": {"tensor": {"dtype": "DT_INT32", "tensorShape": {"dim": [{"size": "4"}]}}}}}, {"name": "PartitionedCall/cond_15/else/_222/cond_15/GatherV2_1/axis", "op": "Const", "input": ["^PartitionedCall/cond_15/pivot_f/_224"], "attr": {"dtype": {"type": "DT_INT32"}, "value": {"tensor": {"dtype": "DT_INT32", "tensorShape": {}}}}}, {"name": "PartitionedCall/cond_15/else/_222/cond_15/range", "op": "Const", "input": ["^PartitionedCall/cond_15/pivot_f/_224"], "attr": {"dtype": {"type": "DT_INT32"}, "value": {"tensor": {"dtype": "DT_INT32", "tensorShape": {"dim": [{"size": "4"}]}}}}}, {"name": "PartitionedCall/cond_15/else/_222/cond_15/GatherV2/axis", "op": "Const", "input": ["^PartitionedCall/cond_15/pivot_f/_224"], "attr": {"dtype": {"type": "DT_INT32"}, "value": {"tensor": {"dtype": "DT_INT32", "tensorShape": {}}}}}, {"name": "PartitionedCall/cond_16/else/_231/cond_16/range_1", "op": "Const", "input": ["^PartitionedCall/cond_16/pivot_f/_233"], "attr": {"dtype": {"type": "DT_INT32"}, "value": {"tensor": {"dtype": "DT_INT32", "tensorShape": {"dim": [{"size": "4"}]}}}}}, {"name": "PartitionedCall/cond_16/else/_231/cond_16/GatherV2_1/axis", "op": "Const", "input": ["^PartitionedCall/cond_16/pivot_f/_233"], "attr": {"value": {"tensor": {"dtype": "DT_INT32", "tensorShape": {}}}, "dtype": {"type": "DT_INT32"}}}, {"name": "PartitionedCall/cond_16/else/_231/cond_16/range", "op": "Const", "input": ["^PartitionedCall/cond_16/pivot_f/_233"], "attr": {"value": {"tensor": {"dtype": "DT_INT32", "tensorShape": {"dim": [{"size": "4"}]}}}, "dtype": {"type": "DT_INT32"}}}, {"name": "PartitionedCall/cond_16/else/_231/cond_16/GatherV2/axis", "op": "Const", "input": ["^PartitionedCall/cond_16/pivot_f/_233"], "attr": {"dtype": {"type": "DT_INT32"}, "value": {"tensor": {"dtype": "DT_INT32", "tensorShape": {}}}}}, {"name": "PartitionedCall/cond_17/else/_240/cond_17/range_1", "op": "Const", "input": ["^PartitionedCall/cond_17/pivot_f/_242"], "attr": {"dtype": {"type": "DT_INT32"}, "value": {"tensor": {"dtype": "DT_INT32", "tensorShape": {"dim": [{"size": "4"}]}}}}}, {"name": "PartitionedCall/cond_17/else/_240/cond_17/GatherV2_1/axis", "op": "Const", "input": ["^PartitionedCall/cond_17/pivot_f/_242"], "attr": {"value": {"tensor": {"dtype": "DT_INT32", "tensorShape": {}}}, "dtype": {"type": "DT_INT32"}}}, {"name": "PartitionedCall/cond_17/else/_240/cond_17/range", "op": "Const", "input": ["^PartitionedCall/cond_17/pivot_f/_242"], "attr": {"value": {"tensor": {"dtype": "DT_INT32", "tensorShape": {"dim": [{"size": "4"}]}}}, "dtype": {"type": "DT_INT32"}}}, {"name": "PartitionedCall/cond_17/else/_240/cond_17/GatherV2/axis", "op": "Const", "input": ["^PartitionedCall/cond_17/pivot_f/_242"], "attr": {"value": {"tensor": {"dtype": "DT_INT32", "tensorShape": {}}}, "dtype": {"type": "DT_INT32"}}}, {"name": "PartitionedCall/cond_18/else/_249/cond_18/range_1", "op": "Const", "input": ["^PartitionedCall/cond_18/pivot_f/_251"], "attr": {"dtype": {"type": "DT_INT32"}, "value": {"tensor": {"dtype": "DT_INT32", "tensorShape": {"dim": [{"size": "4"}]}}}}}, {"name": "PartitionedCall/cond_18/else/_249/cond_18/GatherV2_1/axis", "op": "Const", "input": ["^PartitionedCall/cond_18/pivot_f/_251"], "attr": {"value": {"tensor": {"dtype": "DT_INT32", "tensorShape": {}}}, "dtype": {"type": "DT_INT32"}}}, {"name": "PartitionedCall/cond_18/else/_249/cond_18/range", "op": "Const", "input": ["^PartitionedCall/cond_18/pivot_f/_251"], "attr": {"dtype": {"type": "DT_INT32"}, "value": {"tensor": {"dtype": "DT_INT32", "tensorShape": {"dim": [{"size": "4"}]}}}}}, {"name": "PartitionedCall/cond_18/else/_249/cond_18/GatherV2/axis", "op": "Const", "input": ["^PartitionedCall/cond_18/pivot_f/_251"], "attr": {"value": {"tensor": {"dtype": "DT_INT32", "tensorShape": {}}}, "dtype": {"type": "DT_INT32"}}}, {"name": "PartitionedCall/cond_19/else/_258/cond_19/range_1", "op": "Const", "input": ["^PartitionedCall/cond_19/pivot_f/_260"], "attr": {"value": {"tensor": {"dtype": "DT_INT32", "tensorShape": {"dim": [{"size": "4"}]}}}, "dtype": {"type": "DT_INT32"}}}, {"name": "PartitionedCall/cond_19/else/_258/cond_19/GatherV2_1/axis", "op": "Const", "input": ["^PartitionedCall/cond_19/pivot_f/_260"], "attr": {"dtype": {"type": "DT_INT32"}, "value": {"tensor": {"dtype": "DT_INT32", "tensorShape": {}}}}}, {"name": "PartitionedCall/cond_19/else/_258/cond_19/range", "op": "Const", "input": ["^PartitionedCall/cond_19/pivot_f/_260"], "attr": {"value": {"tensor": {"dtype": "DT_INT32", "tensorShape": {"dim": [{"size": "4"}]}}}, "dtype": {"type": "DT_INT32"}}}, {"name": "PartitionedCall/cond_19/else/_258/cond_19/GatherV2/axis", "op": "Const", "input": ["^PartitionedCall/cond_19/pivot_f/_260"], "attr": {"dtype": {"type": "DT_INT32"}, "value": {"tensor": {"dtype": "DT_INT32", "tensorShape": {}}}}}, {"name": "PartitionedCall/cond/PartitionedCall/clip_by_value/_92", "op": "Switch", "input": ["PartitionedCall/clip_by_value", "PartitionedCall/All"], "attr": {"T": {"type": "DT_FLOAT"}}}, {"name": "PartitionedCall/cond/else/_87/cond/GatherV2_1", "op": "GatherV2", "input": ["PartitionedCall/cond/PartitionedCall/Const_2/_91", "PartitionedCall/cond/else/_87/cond/range_1", "PartitionedCall/cond/else/_87/cond/GatherV2_1/axis"], "attr": {"Taxis": {"type": "DT_INT32"}, "Tparams": {"type": "DT_INT32"}, "Tindices": {"type": "DT_INT32"}, "batch_dims": {"i": "0"}}}, {"name": "PartitionedCall/cond/else/_87/cond/GatherV2", "op": "GatherV2", "input": ["PartitionedCall/cond/PartitionedCall/Const_2/_91", "PartitionedCall/cond/else/_87/cond/range", "PartitionedCall/cond/else/_87/cond/GatherV2/axis"], "attr": {"Tindices": {"type": "DT_INT32"}, "Tparams": {"type": "DT_INT32"}, "Taxis": {"type": "DT_INT32"}, "batch_dims": {"i": "0"}}}, {"name": "PartitionedCall/cond_1/else/_96/cond_1/GatherV2_1", "op": "GatherV2", "input": ["PartitionedCall/cond_1/PartitionedCall/Const_12/_100", "PartitionedCall/cond_1/else/_96/cond_1/range_1", "PartitionedCall/cond_1/else/_96/cond_1/GatherV2_1/axis"], "attr": {"batch_dims": {"i": "0"}, "Tparams": {"type": "DT_INT32"}, "Taxis": {"type": "DT_INT32"}, "Tindices": {"type": "DT_INT32"}}}, {"name": "PartitionedCall/cond_1/else/_96/cond_1/GatherV2", "op": "GatherV2", "input": ["PartitionedCall/cond_1/PartitionedCall/Const_12/_100", "PartitionedCall/cond_1/else/_96/cond_1/range", "PartitionedCall/cond_1/else/_96/cond_1/GatherV2/axis"], "attr": {"Tparams": {"type": "DT_INT32"}, "Tindices": {"type": "DT_INT32"}, "Taxis": {"type": "DT_INT32"}, "batch_dims": {"i": "0"}}}, {"name": "PartitionedCall/cond_2/else/_105/cond_2/GatherV2_1", "op": "GatherV2", "input": ["PartitionedCall/cond_2/PartitionedCall/Const_18/_109", "PartitionedCall/cond_2/else/_105/cond_2/range_1", "PartitionedCall/cond_2/else/_105/cond_2/GatherV2_1/axis"], "attr": {"Tparams": {"type": "DT_INT32"}, "batch_dims": {"i": "0"}, "Taxis": {"type": "DT_INT32"}, "Tindices": {"type": "DT_INT32"}}}, {"name": "PartitionedCall/cond_2/else/_105/cond_2/GatherV2", "op": "GatherV2", "input": ["PartitionedCall/cond_2/PartitionedCall/Const_18/_109", "PartitionedCall/cond_2/else/_105/cond_2/range", "PartitionedCall/cond_2/else/_105/cond_2/GatherV2/axis"], "attr": {"Tparams": {"type": "DT_INT32"}, "Taxis": {"type": "DT_INT32"}, "batch_dims": {"i": "0"}, "Tindices": {"type": "DT_INT32"}}}, {"name": "PartitionedCall/cond_3/else/_114/cond_3/GatherV2_1", "op": "GatherV2", "input": ["PartitionedCall/cond_3/PartitionedCall/Const_24/_118", "PartitionedCall/cond_3/else/_114/cond_3/range_1", "PartitionedCall/cond_3/else/_114/cond_3/GatherV2_1/axis"], "attr": {"batch_dims": {"i": "0"}, "Tindices": {"type": "DT_INT32"}, "Tparams": {"type": "DT_INT32"}, "Taxis": {"type": "DT_INT32"}}}, {"name": "PartitionedCall/cond_3/else/_114/cond_3/GatherV2", "op": "GatherV2", "input": ["PartitionedCall/cond_3/PartitionedCall/Const_24/_118", "PartitionedCall/cond_3/else/_114/cond_3/range", "PartitionedCall/cond_3/else/_114/cond_3/GatherV2/axis"], "attr": {"batch_dims": {"i": "0"}, "Tparams": {"type": "DT_INT32"}, "Taxis": {"type": "DT_INT32"}, "Tindices": {"type": "DT_INT32"}}}, {"name": "PartitionedCall/cond_4/else/_123/cond_4/GatherV2_1", "op": "GatherV2", "input": ["PartitionedCall/cond_4/PartitionedCall/Const_30/_127", "PartitionedCall/cond_4/else/_123/cond_4/range_1", "PartitionedCall/cond_4/else/_123/cond_4/GatherV2_1/axis"], "attr": {"Taxis": {"type": "DT_INT32"}, "batch_dims": {"i": "0"}, "Tparams": {"type": "DT_INT32"}, "Tindices": {"type": "DT_INT32"}}}, {"name": "PartitionedCall/cond_4/else/_123/cond_4/GatherV2", "op": "GatherV2", "input": ["PartitionedCall/cond_4/PartitionedCall/Const_30/_127", "PartitionedCall/cond_4/else/_123/cond_4/range", "PartitionedCall/cond_4/else/_123/cond_4/GatherV2/axis"], "attr": {"Taxis": {"type": "DT_INT32"}, "Tparams": {"type": "DT_INT32"}, "Tindices": {"type": "DT_INT32"}, "batch_dims": {"i": "0"}}}, {"name": "PartitionedCall/cond_5/else/_132/cond_5/GatherV2_1", "op": "GatherV2", "input": ["PartitionedCall/cond_5/PartitionedCall/Const_36/_136", "PartitionedCall/cond_5/else/_132/cond_5/range_1", "PartitionedCall/cond_5/else/_132/cond_5/GatherV2_1/axis"], "attr": {"Taxis": {"type": "DT_INT32"}, "Tindices": {"type": "DT_INT32"}, "batch_dims": {"i": "0"}, "Tparams": {"type": "DT_INT32"}}}, {"name": "PartitionedCall/cond_5/else/_132/cond_5/GatherV2", "op": "GatherV2", "input": ["PartitionedCall/cond_5/PartitionedCall/Const_36/_136", "PartitionedCall/cond_5/else/_132/cond_5/range", "PartitionedCall/cond_5/else/_132/cond_5/GatherV2/axis"], "attr": {"Taxis": {"type": "DT_INT32"}, "batch_dims": {"i": "0"}, "Tindices": {"type": "DT_INT32"}, "Tparams": {"type": "DT_INT32"}}}, {"name": "PartitionedCall/cond_6/else/_141/cond_6/GatherV2_1", "op": "GatherV2", "input": ["PartitionedCall/cond_6/PartitionedCall/Const_42/_145", "PartitionedCall/cond_6/else/_141/cond_6/range_1", "PartitionedCall/cond_6/else/_141/cond_6/GatherV2_1/axis"], "attr": {"Tparams": {"type": "DT_INT32"}, "Tindices": {"type": "DT_INT32"}, "batch_dims": {"i": "0"}, "Taxis": {"type": "DT_INT32"}}}, {"name": "PartitionedCall/cond_6/else/_141/cond_6/GatherV2", "op": "GatherV2", "input": ["PartitionedCall/cond_6/PartitionedCall/Const_42/_145", "PartitionedCall/cond_6/else/_141/cond_6/range", "PartitionedCall/cond_6/else/_141/cond_6/GatherV2/axis"], "attr": {"Tindices": {"type": "DT_INT32"}, "Tparams": {"type": "DT_INT32"}, "Taxis": {"type": "DT_INT32"}, "batch_dims": {"i": "0"}}}, {"name": "PartitionedCall/cond_7/else/_150/cond_7/GatherV2_1", "op": "GatherV2", "input": ["PartitionedCall/cond_7/PartitionedCall/Const_48/_154", "PartitionedCall/cond_7/else/_150/cond_7/range_1", "PartitionedCall/cond_7/else/_150/cond_7/GatherV2_1/axis"], "attr": {"batch_dims": {"i": "0"}, "Tparams": {"type": "DT_INT32"}, "Taxis": {"type": "DT_INT32"}, "Tindices": {"type": "DT_INT32"}}}, {"name": "PartitionedCall/cond_7/else/_150/cond_7/GatherV2", "op": "GatherV2", "input": ["PartitionedCall/cond_7/PartitionedCall/Const_48/_154", "PartitionedCall/cond_7/else/_150/cond_7/range", "PartitionedCall/cond_7/else/_150/cond_7/GatherV2/axis"], "attr": {"Tparams": {"type": "DT_INT32"}, "batch_dims": {"i": "0"}, "Tindices": {"type": "DT_INT32"}, "Taxis": {"type": "DT_INT32"}}}, {"name": "PartitionedCall/cond_8/else/_159/cond_8/GatherV2_1", "op": "GatherV2", "input": ["PartitionedCall/cond_8/PartitionedCall/Const_54/_163", "PartitionedCall/cond_8/else/_159/cond_8/range_1", "PartitionedCall/cond_8/else/_159/cond_8/GatherV2_1/axis"], "attr": {"Tindices": {"type": "DT_INT32"}, "batch_dims": {"i": "0"}, "Tparams": {"type": "DT_INT32"}, "Taxis": {"type": "DT_INT32"}}}, {"name": "PartitionedCall/cond_8/else/_159/cond_8/GatherV2", "op": "GatherV2", "input": ["PartitionedCall/cond_8/PartitionedCall/Const_54/_163", "PartitionedCall/cond_8/else/_159/cond_8/range", "PartitionedCall/cond_8/else/_159/cond_8/GatherV2/axis"], "attr": {"Tindices": {"type": "DT_INT32"}, "Taxis": {"type": "DT_INT32"}, "batch_dims": {"i": "0"}, "Tparams": {"type": "DT_INT32"}}}, {"name": "PartitionedCall/cond_9/else/_168/cond_9/GatherV2_1", "op": "GatherV2", "input": ["PartitionedCall/cond_9/PartitionedCall/Const_60/_172", "PartitionedCall/cond_9/else/_168/cond_9/range_1", "PartitionedCall/cond_9/else/_168/cond_9/GatherV2_1/axis"], "attr": {"Taxis": {"type": "DT_INT32"}, "batch_dims": {"i": "0"}, "Tindices": {"type": "DT_INT32"}, "Tparams": {"type": "DT_INT32"}}}, {"name": "PartitionedCall/cond_9/else/_168/cond_9/GatherV2", "op": "GatherV2", "input": ["PartitionedCall/cond_9/PartitionedCall/Const_60/_172", "PartitionedCall/cond_9/else/_168/cond_9/range", "PartitionedCall/cond_9/else/_168/cond_9/GatherV2/axis"], "attr": {"Taxis": {"type": "DT_INT32"}, "Tindices": {"type": "DT_INT32"}, "batch_dims": {"i": "0"}, "Tparams": {"type": "DT_INT32"}}}, {"name": "PartitionedCall/cond_10/else/_177/cond_10/GatherV2_1", "op": "GatherV2", "input": ["PartitionedCall/cond_10/PartitionedCall/Const_66/_181", "PartitionedCall/cond_10/else/_177/cond_10/range_1", "PartitionedCall/cond_10/else/_177/cond_10/GatherV2_1/axis"], "attr": {"Taxis": {"type": "DT_INT32"}, "batch_dims": {"i": "0"}, "Tparams": {"type": "DT_INT32"}, "Tindices": {"type": "DT_INT32"}}}, {"name": "PartitionedCall/cond_10/else/_177/cond_10/GatherV2", "op": "GatherV2", "input": ["PartitionedCall/cond_10/PartitionedCall/Const_66/_181", "PartitionedCall/cond_10/else/_177/cond_10/range", "PartitionedCall/cond_10/else/_177/cond_10/GatherV2/axis"], "attr": {"Tindices": {"type": "DT_INT32"}, "Taxis": {"type": "DT_INT32"}, "Tparams": {"type": "DT_INT32"}, "batch_dims": {"i": "0"}}}, {"name": "PartitionedCall/cond_11/else/_186/cond_11/GatherV2_1", "op": "GatherV2", "input": ["PartitionedCall/cond_11/PartitionedCall/Const_72/_190", "PartitionedCall/cond_11/else/_186/cond_11/range_1", "PartitionedCall/cond_11/else/_186/cond_11/GatherV2_1/axis"], "attr": {"batch_dims": {"i": "0"}, "Tindices": {"type": "DT_INT32"}, "Taxis": {"type": "DT_INT32"}, "Tparams": {"type": "DT_INT32"}}}, {"name": "PartitionedCall/cond_11/else/_186/cond_11/GatherV2", "op": "GatherV2", "input": ["PartitionedCall/cond_11/PartitionedCall/Const_72/_190", "PartitionedCall/cond_11/else/_186/cond_11/range", "PartitionedCall/cond_11/else/_186/cond_11/GatherV2/axis"], "attr": {"Tindices": {"type": "DT_INT32"}, "batch_dims": {"i": "0"}, "Tparams": {"type": "DT_INT32"}, "Taxis": {"type": "DT_INT32"}}}, {"name": "PartitionedCall/cond_12/else/_195/cond_12/GatherV2_1", "op": "GatherV2", "input": ["PartitionedCall/cond_12/PartitionedCall/Const_78/_199", "PartitionedCall/cond_12/else/_195/cond_12/range_1", "PartitionedCall/cond_12/else/_195/cond_12/GatherV2_1/axis"], "attr": {"Tparams": {"type": "DT_INT32"}, "batch_dims": {"i": "0"}, "Tindices": {"type": "DT_INT32"}, "Taxis": {"type": "DT_INT32"}}}, {"name": "PartitionedCall/cond_12/else/_195/cond_12/GatherV2", "op": "GatherV2", "input": ["PartitionedCall/cond_12/PartitionedCall/Const_78/_199", "PartitionedCall/cond_12/else/_195/cond_12/range", "PartitionedCall/cond_12/else/_195/cond_12/GatherV2/axis"], "attr": {"batch_dims": {"i": "0"}, "Taxis": {"type": "DT_INT32"}, "Tindices": {"type": "DT_INT32"}, "Tparams": {"type": "DT_INT32"}}}, {"name": "PartitionedCall/cond_13/else/_204/cond_13/GatherV2_1", "op": "GatherV2", "input": ["PartitionedCall/cond_13/PartitionedCall/Const_84/_208", "PartitionedCall/cond_13/else/_204/cond_13/range_1", "PartitionedCall/cond_13/else/_204/cond_13/GatherV2_1/axis"], "attr": {"Taxis": {"type": "DT_INT32"}, "Tindices": {"type": "DT_INT32"}, "batch_dims": {"i": "0"}, "Tparams": {"type": "DT_INT32"}}}, {"name": "PartitionedCall/cond_13/else/_204/cond_13/GatherV2", "op": "GatherV2", "input": ["PartitionedCall/cond_13/PartitionedCall/Const_84/_208", "PartitionedCall/cond_13/else/_204/cond_13/range", "PartitionedCall/cond_13/else/_204/cond_13/GatherV2/axis"], "attr": {"batch_dims": {"i": "0"}, "Tindices": {"type": "DT_INT32"}, "Taxis": {"type": "DT_INT32"}, "Tparams": {"type": "DT_INT32"}}}, {"name": "PartitionedCall/cond_14/else/_213/cond_14/GatherV2_1", "op": "GatherV2", "input": ["PartitionedCall/cond_14/PartitionedCall/Const_90/_217", "PartitionedCall/cond_14/else/_213/cond_14/range_1", "PartitionedCall/cond_14/else/_213/cond_14/GatherV2_1/axis"], "attr": {"Tparams": {"type": "DT_INT32"}, "Tindices": {"type": "DT_INT32"}, "batch_dims": {"i": "0"}, "Taxis": {"type": "DT_INT32"}}}, {"name": "PartitionedCall/cond_14/else/_213/cond_14/GatherV2", "op": "GatherV2", "input": ["PartitionedCall/cond_14/PartitionedCall/Const_90/_217", "PartitionedCall/cond_14/else/_213/cond_14/range", "PartitionedCall/cond_14/else/_213/cond_14/GatherV2/axis"], "attr": {"batch_dims": {"i": "0"}, "Tparams": {"type": "DT_INT32"}, "Tindices": {"type": "DT_INT32"}, "Taxis": {"type": "DT_INT32"}}}, {"name": "PartitionedCall/cond_15/else/_222/cond_15/GatherV2_1", "op": "GatherV2", "input": ["PartitionedCall/cond_15/PartitionedCall/Const_96/_226", "PartitionedCall/cond_15/else/_222/cond_15/range_1", "PartitionedCall/cond_15/else/_222/cond_15/GatherV2_1/axis"], "attr": {"batch_dims": {"i": "0"}, "Taxis": {"type": "DT_INT32"}, "Tindices": {"type": "DT_INT32"}, "Tparams": {"type": "DT_INT32"}}}, {"name": "PartitionedCall/cond_15/else/_222/cond_15/GatherV2", "op": "GatherV2", "input": ["PartitionedCall/cond_15/PartitionedCall/Const_96/_226", "PartitionedCall/cond_15/else/_222/cond_15/range", "PartitionedCall/cond_15/else/_222/cond_15/GatherV2/axis"], "attr": {"batch_dims": {"i": "0"}, "Taxis": {"type": "DT_INT32"}, "Tindices": {"type": "DT_INT32"}, "Tparams": {"type": "DT_INT32"}}}, {"name": "PartitionedCall/cond_16/else/_231/cond_16/GatherV2_1", "op": "GatherV2", "input": ["PartitionedCall/cond_16/PartitionedCall/Const_102/_235", "PartitionedCall/cond_16/else/_231/cond_16/range_1", "PartitionedCall/cond_16/else/_231/cond_16/GatherV2_1/axis"], "attr": {"Taxis": {"type": "DT_INT32"}, "Tparams": {"type": "DT_INT32"}, "Tindices": {"type": "DT_INT32"}, "batch_dims": {"i": "0"}}}, {"name": "PartitionedCall/cond_16/else/_231/cond_16/GatherV2", "op": "GatherV2", "input": ["PartitionedCall/cond_16/PartitionedCall/Const_102/_235", "PartitionedCall/cond_16/else/_231/cond_16/range", "PartitionedCall/cond_16/else/_231/cond_16/GatherV2/axis"], "attr": {"Taxis": {"type": "DT_INT32"}, "Tparams": {"type": "DT_INT32"}, "Tindices": {"type": "DT_INT32"}, "batch_dims": {"i": "0"}}}, {"name": "PartitionedCall/cond_17/else/_240/cond_17/GatherV2_1", "op": "GatherV2", "input": ["PartitionedCall/cond_17/PartitionedCall/Const_108/_244", "PartitionedCall/cond_17/else/_240/cond_17/range_1", "PartitionedCall/cond_17/else/_240/cond_17/GatherV2_1/axis"], "attr": {"Taxis": {"type": "DT_INT32"}, "Tparams": {"type": "DT_INT32"}, "batch_dims": {"i": "0"}, "Tindices": {"type": "DT_INT32"}}}, {"name": "PartitionedCall/cond_17/else/_240/cond_17/GatherV2", "op": "GatherV2", "input": ["PartitionedCall/cond_17/PartitionedCall/Const_108/_244", "PartitionedCall/cond_17/else/_240/cond_17/range", "PartitionedCall/cond_17/else/_240/cond_17/GatherV2/axis"], "attr": {"batch_dims": {"i": "0"}, "Taxis": {"type": "DT_INT32"}, "Tparams": {"type": "DT_INT32"}, "Tindices": {"type": "DT_INT32"}}}, {"name": "PartitionedCall/cond_18/else/_249/cond_18/GatherV2_1", "op": "GatherV2", "input": ["PartitionedCall/cond_18/PartitionedCall/Const_114/_253", "PartitionedCall/cond_18/else/_249/cond_18/range_1", "PartitionedCall/cond_18/else/_249/cond_18/GatherV2_1/axis"], "attr": {"Tindices": {"type": "DT_INT32"}, "Taxis": {"type": "DT_INT32"}, "batch_dims": {"i": "0"}, "Tparams": {"type": "DT_INT32"}}}, {"name": "PartitionedCall/cond_18/else/_249/cond_18/GatherV2", "op": "GatherV2", "input": ["PartitionedCall/cond_18/PartitionedCall/Const_114/_253", "PartitionedCall/cond_18/else/_249/cond_18/range", "PartitionedCall/cond_18/else/_249/cond_18/GatherV2/axis"], "attr": {"Taxis": {"type": "DT_INT32"}, "Tparams": {"type": "DT_INT32"}, "Tindices": {"type": "DT_INT32"}, "batch_dims": {"i": "0"}}}, {"name": "PartitionedCall/cond_19/else/_258/cond_19/GatherV2_1", "op": "GatherV2", "input": ["PartitionedCall/cond_19/PartitionedCall/Const_124/_262", "PartitionedCall/cond_19/else/_258/cond_19/range_1", "PartitionedCall/cond_19/else/_258/cond_19/GatherV2_1/axis"], "attr": {"Tindices": {"type": "DT_INT32"}, "Tparams": {"type": "DT_INT32"}, "batch_dims": {"i": "0"}, "Taxis": {"type": "DT_INT32"}}}, {"name": "PartitionedCall/cond_19/else/_258/cond_19/GatherV2", "op": "GatherV2", "input": ["PartitionedCall/cond_19/PartitionedCall/Const_124/_262", "PartitionedCall/cond_19/else/_258/cond_19/range", "PartitionedCall/cond_19/else/_258/cond_19/GatherV2/axis"], "attr": {"Tindices": {"type": "DT_INT32"}, "Taxis": {"type": "DT_INT32"}, "batch_dims": {"i": "0"}, "Tparams": {"type": "DT_INT32"}}}, {"name": "PartitionedCall/cond/then/_86/cond/MirrorPad", "op": "MirrorPad", "input": ["PartitionedCall/cond/PartitionedCall/clip_by_value/_92:1", "PartitionedCall/cond/then/_86/cond/transpose"], "attr": {"Tpaddings": {"type": "DT_INT32"}, "T": {"type": "DT_FLOAT"}, "mode": {"s": "UkVGTEVDVA=="}}}, {"name": "PartitionedCall/cond/else/_87/cond/Neg", "op": "Neg", "input": ["PartitionedCall/cond/else/_87/cond/GatherV2"], "attr": {"T": {"type": "DT_INT32"}}}, {"name": "PartitionedCall/cond/else/_87/cond/ArithmeticOptimizer/AddOpsRewrite_sub", "op": "AddN", "input": ["PartitionedCall/cond/else/_87/cond/Shape", "PartitionedCall/cond/else/_87/cond/GatherV2_1", "PartitionedCall/cond/else/_87/cond/GatherV2"], "attr": {"_grappler_ArithmeticOptimizer_AddOpsRewriteStage": {"b": true}, "T": {"type": "DT_INT32"}, "N": {"i": "3"}}}, {"name": "PartitionedCall/cond_1/else/_96/cond_1/Neg", "op": "Neg", "input": ["PartitionedCall/cond_1/else/_96/cond_1/GatherV2"], "attr": {"T": {"type": "DT_INT32"}}}, {"name": "PartitionedCall/cond_2/else/_105/cond_2/Neg", "op": "Neg", "input": ["PartitionedCall/cond_2/else/_105/cond_2/GatherV2"], "attr": {"T": {"type": "DT_INT32"}}}, {"name": "PartitionedCall/cond_3/else/_114/cond_3/Neg", "op": "Neg", "input": ["PartitionedCall/cond_3/else/_114/cond_3/GatherV2"], "attr": {"T": {"type": "DT_INT32"}}}, {"name": "PartitionedCall/cond_4/else/_123/cond_4/Neg", "op": "Neg", "input": ["PartitionedCall/cond_4/else/_123/cond_4/GatherV2"], "attr": {"T": {"type": "DT_INT32"}}}, {"name": "PartitionedCall/cond_5/else/_132/cond_5/Neg", "op": "Neg", "input": ["PartitionedCall/cond_5/else/_132/cond_5/GatherV2"], "attr": {"T": {"type": "DT_INT32"}}}, {"name": "PartitionedCall/cond_6/else/_141/cond_6/Neg", "op": "Neg", "input": ["PartitionedCall/cond_6/else/_141/cond_6/GatherV2"], "attr": {"T": {"type": "DT_INT32"}}}, {"name": "PartitionedCall/cond_7/else/_150/cond_7/Neg", "op": "Neg", "input": ["PartitionedCall/cond_7/else/_150/cond_7/GatherV2"], "attr": {"T": {"type": "DT_INT32"}}}, {"name": "PartitionedCall/cond_8/else/_159/cond_8/Neg", "op": "Neg", "input": ["PartitionedCall/cond_8/else/_159/cond_8/GatherV2"], "attr": {"T": {"type": "DT_INT32"}}}, {"name": "PartitionedCall/cond_9/else/_168/cond_9/Neg", "op": "Neg", "input": ["PartitionedCall/cond_9/else/_168/cond_9/GatherV2"], "attr": {"T": {"type": "DT_INT32"}}}, {"name": "PartitionedCall/cond_10/else/_177/cond_10/Neg", "op": "Neg", "input": ["PartitionedCall/cond_10/else/_177/cond_10/GatherV2"], "attr": {"T": {"type": "DT_INT32"}}}, {"name": "PartitionedCall/cond_11/else/_186/cond_11/Neg", "op": "Neg", "input": ["PartitionedCall/cond_11/else/_186/cond_11/GatherV2"], "attr": {"T": {"type": "DT_INT32"}}}, {"name": "PartitionedCall/cond_12/else/_195/cond_12/Neg", "op": "Neg", "input": ["PartitionedCall/cond_12/else/_195/cond_12/GatherV2"], "attr": {"T": {"type": "DT_INT32"}}}, {"name": "PartitionedCall/cond_13/else/_204/cond_13/Neg", "op": "Neg", "input": ["PartitionedCall/cond_13/else/_204/cond_13/GatherV2"], "attr": {"T": {"type": "DT_INT32"}}}, {"name": "PartitionedCall/cond_14/else/_213/cond_14/Neg", "op": "Neg", "input": ["PartitionedCall/cond_14/else/_213/cond_14/GatherV2"], "attr": {"T": {"type": "DT_INT32"}}}, {"name": "PartitionedCall/cond_15/else/_222/cond_15/Neg", "op": "Neg", "input": ["PartitionedCall/cond_15/else/_222/cond_15/GatherV2"], "attr": {"T": {"type": "DT_INT32"}}}, {"name": "PartitionedCall/cond_16/else/_231/cond_16/Neg", "op": "Neg", "input": ["PartitionedCall/cond_16/else/_231/cond_16/GatherV2"], "attr": {"T": {"type": "DT_INT32"}}}, {"name": "PartitionedCall/cond_17/else/_240/cond_17/Neg", "op": "Neg", "input": ["PartitionedCall/cond_17/else/_240/cond_17/GatherV2"], "attr": {"T": {"type": "DT_INT32"}}}, {"name": "PartitionedCall/cond_18/else/_249/cond_18/Neg", "op": "Neg", "input": ["PartitionedCall/cond_18/else/_249/cond_18/GatherV2"], "attr": {"T": {"type": "DT_INT32"}}}, {"name": "PartitionedCall/cond_19/else/_258/cond_19/Neg", "op": "Neg", "input": ["PartitionedCall/cond_19/else/_258/cond_19/GatherV2"], "attr": {"T": {"type": "DT_INT32"}}}, {"name": "PartitionedCall/cond/else/_87/cond/Slice", "op": "Slice", "input": ["PartitionedCall/cond/PartitionedCall/clip_by_value/_92", "PartitionedCall/cond/else/_87/cond/Neg", "PartitionedCall/cond/else/_87/cond/ArithmeticOptimizer/AddOpsRewrite_sub"], "attr": {"Index": {"type": "DT_INT32"}, "T": {"type": "DT_FLOAT"}}}, {"name": "PartitionedCall/cond/output/_93", "op": "Merge", "input": ["PartitionedCall/cond/then/_86/cond/MirrorPad", "PartitionedCall/cond/else/_87/cond/Slice"], "attr": {"N": {"i": "2"}, "T": {"type": "DT_FLOAT"}}}, {"name": "PartitionedCall/transpose_1", "op": "Transpose", "input": ["PartitionedCall/cond/output/_93", "PartitionedCall/transpose_1/perm"], "attr": {"T": {"type": "DT_FLOAT"}, "Tperm": {"type": "DT_INT32"}}}, {"name": "PartitionedCall/convolution", "op": "Conv2D", "input": ["PartitionedCall/transpose_1", "PartitionedCall/split"], "device": "/device:CPU:0", "attr": {"dilations": {"list": {"i": ["1", "1", "1", "1"]}}, "explicit_paddings": {"list": {}}, "padding": {"s": "VkFMSUQ="}, "use_cudnn_on_gpu": {"b": true}, "data_format": {"s": "TkhXQw=="}, "T": {"type": "DT_FLOAT"}, "strides": {"list": {"i": ["1", "1", "1", "1"]}}}}, {"name": "PartitionedCall/Add", "op": "AddV2", "input": ["PartitionedCall/convolution", "unknown_1"], "attr": {"T": {"type": "DT_FLOAT"}}}, {"name": "PartitionedCall/transpose_2", "op": "Transpose", "input": ["PartitionedCall/Add", "PartitionedCall/transpose_2/perm"], "attr": {"Tperm": {"type": "DT_INT32"}, "T": {"type": "DT_FLOAT"}}}, {"name": "PartitionedCall/moments/mean", "op": "Mean", "input": ["PartitionedCall/transpose_2", "PartitionedCall/moments/mean/reduction_indices"], "attr": {"T": {"type": "DT_FLOAT"}, "keep_dims": {"b": true}, "Tidx": {"type": "DT_INT32"}}}, {"name": "PartitionedCall/moments/SquaredDifference", "op": "SquaredDifference", "input": ["PartitionedCall/transpose_2", "PartitionedCall/moments/mean"], "attr": {"T": {"type": "DT_FLOAT"}}}, {"name": "PartitionedCall/moments/variance", "op": "Mean", "input": ["PartitionedCall/moments/SquaredDifference", "PartitionedCall/moments/variance/reduction_indices"], "attr": {"keep_dims": {"b": true}, "Tidx": {"type": "DT_INT32"}, "T": {"type": "DT_FLOAT"}}}, {"name": "PartitionedCall/onnx_tf_prefix_instancenorm/add", "op": "AddV2", "input": ["PartitionedCall/moments/variance", "PartitionedCall/onnx_tf_prefix_instancenorm/add/y"], "attr": {"T": {"type": "DT_FLOAT"}}}, {"name": "PartitionedCall/onnx_tf_prefix_instancenorm/Rsqrt", "op": "Rsqrt", "input": ["PartitionedCall/onnx_tf_prefix_instancenorm/add"], "attr": {"T": {"type": "DT_FLOAT"}}}, {"name": "PartitionedCall/onnx_tf_prefix_instancenorm/mul_2", "op": "Mul", "input": ["PartitionedCall/moments/mean", "PartitionedCall/onnx_tf_prefix_instancenorm/Rsqrt"], "attr": {"T": {"type": "DT_FLOAT"}}}, {"name": "PartitionedCall/onnx_tf_prefix_instancenorm/mul_1", "op": "Mul", "input": ["PartitionedCall/transpose_2", "PartitionedCall/onnx_tf_prefix_instancenorm/Rsqrt"], "attr": {"T": {"type": "DT_FLOAT"}}}, {"name": "PartitionedCall/onnx_tf_prefix_instancenorm/add_1", "op": "Sub", "input": ["PartitionedCall/onnx_tf_prefix_instancenorm/mul_1", "PartitionedCall/onnx_tf_prefix_instancenorm/mul_2"], "attr": {"T": {"type": "DT_FLOAT"}}}, {"name": "PartitionedCall/Relu", "op": "Relu", "input": ["PartitionedCall/onnx_tf_prefix_instancenorm/add_1"], "attr": {"T": {"type": "DT_FLOAT"}}}, {"name": "PartitionedCall/Pad", "op": "Pad", "input": ["PartitionedCall/Relu", "PartitionedCall/Const_6"], "attr": {"T": {"type": "DT_FLOAT"}, "Tpaddings": {"type": "DT_INT32"}}}, {"name": "PartitionedCall/transpose_4", "op": "Transpose", "input": ["PartitionedCall/Pad", "PartitionedCall/transpose_4/perm"], "attr": {"Tperm": {"type": "DT_INT32"}, "T": {"type": "DT_FLOAT"}}}, {"name": "PartitionedCall/convolution_1", "op": "Conv2D", "input": ["PartitionedCall/transpose_4", "PartitionedCall/split_1"], "device": "/device:CPU:0", "attr": {"explicit_paddings": {"list": {}}, "T": {"type": "DT_FLOAT"}, "padding": {"s": "VkFMSUQ="}, "dilations": {"list": {"i": ["1", "1", "1", "1"]}}, "data_format": {"s": "TkhXQw=="}, "use_cudnn_on_gpu": {"b": true}, "strides": {"list": {"i": ["1", "2", "2", "1"]}}}}, {"name": "PartitionedCall/Add_1", "op": "AddV2", "input": ["PartitionedCall/convolution_1", "unknown_3"], "attr": {"T": {"type": "DT_FLOAT"}}}, {"name": "PartitionedCall/transpose_5", "op": "Transpose", "input": ["PartitionedCall/Add_1", "PartitionedCall/transpose_5/perm"], "attr": {"Tperm": {"type": "DT_INT32"}, "T": {"type": "DT_FLOAT"}}}, {"name": "PartitionedCall/moments_1/mean", "op": "Mean", "input": ["PartitionedCall/transpose_5", "PartitionedCall/moments_1/mean/reduction_indices"], "attr": {"Tidx": {"type": "DT_INT32"}, "T": {"type": "DT_FLOAT"}, "keep_dims": {"b": true}}}, {"name": "PartitionedCall/moments_1/SquaredDifference", "op": "SquaredDifference", "input": ["PartitionedCall/transpose_5", "PartitionedCall/moments_1/mean"], "attr": {"T": {"type": "DT_FLOAT"}}}, {"name": "PartitionedCall/moments_1/variance", "op": "Mean", "input": ["PartitionedCall/moments_1/SquaredDifference", "PartitionedCall/moments_1/variance/reduction_indices"], "attr": {"Tidx": {"type": "DT_INT32"}, "keep_dims": {"b": true}, "T": {"type": "DT_FLOAT"}}}, {"name": "PartitionedCall/onnx_tf_prefix_instancenorm_1/add", "op": "AddV2", "input": ["PartitionedCall/moments_1/variance", "PartitionedCall/onnx_tf_prefix_instancenorm_1/add/y"], "attr": {"T": {"type": "DT_FLOAT"}}}, {"name": "PartitionedCall/onnx_tf_prefix_instancenorm_1/Rsqrt", "op": "Rsqrt", "input": ["PartitionedCall/onnx_tf_prefix_instancenorm_1/add"], "attr": {"T": {"type": "DT_FLOAT"}}}, {"name": "PartitionedCall/onnx_tf_prefix_instancenorm_1/mul_2", "op": "Mul", "input": ["PartitionedCall/moments_1/mean", "PartitionedCall/onnx_tf_prefix_instancenorm_1/Rsqrt"], "attr": {"T": {"type": "DT_FLOAT"}}}, {"name": "PartitionedCall/onnx_tf_prefix_instancenorm_1/mul_1", "op": "Mul", "input": ["PartitionedCall/transpose_5", "PartitionedCall/onnx_tf_prefix_instancenorm_1/Rsqrt"], "attr": {"T": {"type": "DT_FLOAT"}}}, {"name": "PartitionedCall/onnx_tf_prefix_instancenorm_1/add_1", "op": "Sub", "input": ["PartitionedCall/onnx_tf_prefix_instancenorm_1/mul_1", "PartitionedCall/onnx_tf_prefix_instancenorm_1/mul_2"], "attr": {"T": {"type": "DT_FLOAT"}}}, {"name": "PartitionedCall/Relu_1", "op": "Relu", "input": ["PartitionedCall/onnx_tf_prefix_instancenorm_1/add_1"], "attr": {"T": {"type": "DT_FLOAT"}}}, {"name": "PartitionedCall/Pad_1", "op": "Pad", "input": ["PartitionedCall/Relu_1", "PartitionedCall/Const_9"], "attr": {"T": {"type": "DT_FLOAT"}, "Tpaddings": {"type": "DT_INT32"}}}, {"name": "PartitionedCall/transpose_7", "op": "Transpose", "input": ["PartitionedCall/Pad_1", "PartitionedCall/transpose_7/perm"], "attr": {"Tperm": {"type": "DT_INT32"}, "T": {"type": "DT_FLOAT"}}}, {"name": "PartitionedCall/convolution_2", "op": "Conv2D", "input": ["PartitionedCall/transpose_7", "PartitionedCall/split_2"], "device": "/device:CPU:0", "attr": {"dilations": {"list": {"i": ["1", "1", "1", "1"]}}, "strides": {"list": {"i": ["1", "2", "2", "1"]}}, "use_cudnn_on_gpu": {"b": true}, "explicit_paddings": {"list": {}}, "padding": {"s": "VkFMSUQ="}, "data_format": {"s": "TkhXQw=="}, "T": {"type": "DT_FLOAT"}}}, {"name": "PartitionedCall/Add_2", "op": "AddV2", "input": ["PartitionedCall/convolution_2", "unknown_5"], "attr": {"T": {"type": "DT_FLOAT"}}}, {"name": "PartitionedCall/transpose_8", "op": "Transpose", "input": ["PartitionedCall/Add_2", "PartitionedCall/transpose_8/perm"], "attr": {"T": {"type": "DT_FLOAT"}, "Tperm": {"type": "DT_INT32"}}}, {"name": "PartitionedCall/moments_2/mean", "op": "Mean", "input": ["PartitionedCall/transpose_8", "PartitionedCall/moments_2/mean/reduction_indices"], "attr": {"Tidx": {"type": "DT_INT32"}, "T": {"type": "DT_FLOAT"}, "keep_dims": {"b": true}}}, {"name": "PartitionedCall/moments_2/SquaredDifference", "op": "SquaredDifference", "input": ["PartitionedCall/transpose_8", "PartitionedCall/moments_2/mean"], "attr": {"T": {"type": "DT_FLOAT"}}}, {"name": "PartitionedCall/moments_2/variance", "op": "Mean", "input": ["PartitionedCall/moments_2/SquaredDifference", "PartitionedCall/moments_2/variance/reduction_indices"], "attr": {"Tidx": {"type": "DT_INT32"}, "keep_dims": {"b": true}, "T": {"type": "DT_FLOAT"}}}, {"name": "PartitionedCall/onnx_tf_prefix_instancenorm_2/add", "op": "AddV2", "input": ["PartitionedCall/moments_2/variance", "PartitionedCall/onnx_tf_prefix_instancenorm_2/add/y"], "attr": {"T": {"type": "DT_FLOAT"}}}, {"name": "PartitionedCall/onnx_tf_prefix_instancenorm_2/Rsqrt", "op": "Rsqrt", "input": ["PartitionedCall/onnx_tf_prefix_instancenorm_2/add"], "attr": {"T": {"type": "DT_FLOAT"}}}, {"name": "PartitionedCall/onnx_tf_prefix_instancenorm_2/mul_2", "op": "Mul", "input": ["PartitionedCall/moments_2/mean", "PartitionedCall/onnx_tf_prefix_instancenorm_2/Rsqrt"], "attr": {"T": {"type": "DT_FLOAT"}}}, {"name": "PartitionedCall/onnx_tf_prefix_instancenorm_2/mul_1", "op": "Mul", "input": ["PartitionedCall/transpose_8", "PartitionedCall/onnx_tf_prefix_instancenorm_2/Rsqrt"], "attr": {"T": {"type": "DT_FLOAT"}}}, {"name": "PartitionedCall/onnx_tf_prefix_instancenorm_2/add_1", "op": "Sub", "input": ["PartitionedCall/onnx_tf_prefix_instancenorm_2/mul_1", "PartitionedCall/onnx_tf_prefix_instancenorm_2/mul_2"], "attr": {"T": {"type": "DT_FLOAT"}}}, {"name": "PartitionedCall/Relu_2", "op": "Relu", "input": ["PartitionedCall/onnx_tf_prefix_instancenorm_2/add_1"], "attr": {"T": {"type": "DT_FLOAT"}}}, {"name": "PartitionedCall/cond_1/PartitionedCall/Relu_2/_101", "op": "Switch", "input": ["PartitionedCall/Relu_2", "PartitionedCall/All_1"], "attr": {"T": {"type": "DT_FLOAT"}}}, {"name": "PartitionedCall/cond_1/else/_96/cond_1/Shape", "op": "Shape", "input": ["PartitionedCall/cond_1/PartitionedCall/Relu_2/_101", "^PartitionedCall/cond_1/pivot_f/_98"], "attr": {"out_type": {"type": "DT_INT32"}, "T": {"type": "DT_FLOAT"}}}, {"name": "PartitionedCall/cond_1/then/_95/cond_1/MirrorPad", "op": "MirrorPad", "input": ["PartitionedCall/cond_1/PartitionedCall/Relu_2/_101:1", "PartitionedCall/cond_1/then/_95/cond_1/transpose"], "attr": {"Tpaddings": {"type": "DT_INT32"}, "mode": {"s": "UkVGTEVDVA=="}, "T": {"type": "DT_FLOAT"}}}, {"name": "PartitionedCall/cond_1/else/_96/cond_1/ArithmeticOptimizer/AddOpsRewrite_sub", "op": "AddN", "input": ["PartitionedCall/cond_1/else/_96/cond_1/Shape", "PartitionedCall/cond_1/else/_96/cond_1/GatherV2_1", "PartitionedCall/cond_1/else/_96/cond_1/GatherV2"], "attr": {"N": {"i": "3"}, "T": {"type": "DT_INT32"}, "_grappler_ArithmeticOptimizer_AddOpsRewriteStage": {"b": true}}}, {"name": "PartitionedCall/cond_1/else/_96/cond_1/Slice", "op": "Slice", "input": ["PartitionedCall/cond_1/PartitionedCall/Relu_2/_101", "PartitionedCall/cond_1/else/_96/cond_1/Neg", "PartitionedCall/cond_1/else/_96/cond_1/ArithmeticOptimizer/AddOpsRewrite_sub"], "attr": {"T": {"type": "DT_FLOAT"}, "Index": {"type": "DT_INT32"}}}, {"name": "PartitionedCall/cond_1/output/_102", "op": "Merge", "input": ["PartitionedCall/cond_1/then/_95/cond_1/MirrorPad", "PartitionedCall/cond_1/else/_96/cond_1/Slice"], "attr": {"T": {"type": "DT_FLOAT"}, "N": {"i": "2"}}}, {"name": "PartitionedCall/transpose_10", "op": "Transpose", "input": ["PartitionedCall/cond_1/output/_102", "PartitionedCall/transpose_10/perm"], "attr": {"Tperm": {"type": "DT_INT32"}, "T": {"type": "DT_FLOAT"}}}, {"name": "PartitionedCall/depthwise", "op": "DepthwiseConv2dNative", "input": ["PartitionedCall/transpose_10", "PartitionedCall/Reshape_6"], "attr": {"dilations": {"list": {"i": ["1", "1", "1", "1"]}}, "strides": {"list": {"i": ["1", "1", "1", "1"]}}, "data_format": {"s": "TkhXQw=="}, "T": {"type": "DT_FLOAT"}, "padding": {"s": "VkFMSUQ="}, "explicit_paddings": {"list": {}}}}, {"name": "PartitionedCall/Add_3", "op": "AddV2", "input": ["PartitionedCall/depthwise", "unknown_7"], "attr": {"T": {"type": "DT_FLOAT"}}}, {"name": "PartitionedCall/transpose_11", "op": "Transpose", "input": ["PartitionedCall/Add_3", "PartitionedCall/transpose_11/perm"], "attr": {"Tperm": {"type": "DT_INT32"}, "T": {"type": "DT_FLOAT"}}}, {"name": "PartitionedCall/moments_3/mean", "op": "Mean", "input": ["PartitionedCall/transpose_11", "PartitionedCall/moments_3/mean/reduction_indices"], "attr": {"keep_dims": {"b": true}, "T": {"type": "DT_FLOAT"}, "Tidx": {"type": "DT_INT32"}}}, {"name": "PartitionedCall/moments_3/SquaredDifference", "op": "SquaredDifference", "input": ["PartitionedCall/transpose_11", "PartitionedCall/moments_3/mean"], "attr": {"T": {"type": "DT_FLOAT"}}}, {"name": "PartitionedCall/moments_3/variance", "op": "Mean", "input": ["PartitionedCall/moments_3/SquaredDifference", "PartitionedCall/moments_3/variance/reduction_indices"], "attr": {"keep_dims": {"b": true}, "Tidx": {"type": "DT_INT32"}, "T": {"type": "DT_FLOAT"}}}, {"name": "PartitionedCall/onnx_tf_prefix_instancenorm_3/add", "op": "AddV2", "input": ["PartitionedCall/moments_3/variance", "PartitionedCall/onnx_tf_prefix_instancenorm_3/add/y"], "attr": {"T": {"type": "DT_FLOAT"}}}, {"name": "PartitionedCall/onnx_tf_prefix_instancenorm_3/Rsqrt", "op": "Rsqrt", "input": ["PartitionedCall/onnx_tf_prefix_instancenorm_3/add"], "attr": {"T": {"type": "DT_FLOAT"}}}, {"name": "PartitionedCall/onnx_tf_prefix_instancenorm_3/mul_2", "op": "Mul", "input": ["PartitionedCall/moments_3/mean", "PartitionedCall/onnx_tf_prefix_instancenorm_3/Rsqrt"], "attr": {"T": {"type": "DT_FLOAT"}}}, {"name": "PartitionedCall/onnx_tf_prefix_instancenorm_3/mul_1", "op": "Mul", "input": ["PartitionedCall/transpose_11", "PartitionedCall/onnx_tf_prefix_instancenorm_3/Rsqrt"], "attr": {"T": {"type": "DT_FLOAT"}}}, {"name": "PartitionedCall/onnx_tf_prefix_instancenorm_3/add_1", "op": "Sub", "input": ["PartitionedCall/onnx_tf_prefix_instancenorm_3/mul_1", "PartitionedCall/onnx_tf_prefix_instancenorm_3/mul_2"], "attr": {"T": {"type": "DT_FLOAT"}}}, {"name": "PartitionedCall/transpose_13", "op": "Transpose", "input": ["PartitionedCall/onnx_tf_prefix_instancenorm_3/add_1", "PartitionedCall/transpose_13/perm"], "attr": {"T": {"type": "DT_FLOAT"}, "Tperm": {"type": "DT_INT32"}}}, {"name": "PartitionedCall/convolution_3", "op": "Conv2D", "input": ["PartitionedCall/transpose_13", "PartitionedCall/split_3"], "device": "/device:CPU:0", "attr": {"T": {"type": "DT_FLOAT"}, "use_cudnn_on_gpu": {"b": true}, "padding": {"s": "VkFMSUQ="}, "data_format": {"s": "TkhXQw=="}, "dilations": {"list": {"i": ["1", "1", "1", "1"]}}, "explicit_paddings": {"list": {}}, "strides": {"list": {"i": ["1", "1", "1", "1"]}}}}, {"name": "PartitionedCall/Add_4", "op": "AddV2", "input": ["PartitionedCall/convolution_3", "unknown_9"], "attr": {"T": {"type": "DT_FLOAT"}}}, {"name": "PartitionedCall/transpose_14", "op": "Transpose", "input": ["PartitionedCall/Add_4", "PartitionedCall/transpose_14/perm"], "attr": {"T": {"type": "DT_FLOAT"}, "Tperm": {"type": "DT_INT32"}}}, {"name": "PartitionedCall/moments_4/mean", "op": "Mean", "input": ["PartitionedCall/transpose_14", "PartitionedCall/moments_4/mean/reduction_indices"], "attr": {"keep_dims": {"b": true}, "Tidx": {"type": "DT_INT32"}, "T": {"type": "DT_FLOAT"}}}, {"name": "PartitionedCall/moments_4/SquaredDifference", "op": "SquaredDifference", "input": ["PartitionedCall/transpose_14", "PartitionedCall/moments_4/mean"], "attr": {"T": {"type": "DT_FLOAT"}}}, {"name": "PartitionedCall/moments_4/variance", "op": "Mean", "input": ["PartitionedCall/moments_4/SquaredDifference", "PartitionedCall/moments_4/variance/reduction_indices"], "attr": {"Tidx": {"type": "DT_INT32"}, "keep_dims": {"b": true}, "T": {"type": "DT_FLOAT"}}}, {"name": "PartitionedCall/onnx_tf_prefix_instancenorm_4/add", "op": "AddV2", "input": ["PartitionedCall/moments_4/variance", "PartitionedCall/onnx_tf_prefix_instancenorm_4/add/y"], "attr": {"T": {"type": "DT_FLOAT"}}}, {"name": "PartitionedCall/onnx_tf_prefix_instancenorm_4/Rsqrt", "op": "Rsqrt", "input": ["PartitionedCall/onnx_tf_prefix_instancenorm_4/add"], "attr": {"T": {"type": "DT_FLOAT"}}}, {"name": "PartitionedCall/onnx_tf_prefix_instancenorm_4/mul_2", "op": "Mul", "input": ["PartitionedCall/moments_4/mean", "PartitionedCall/onnx_tf_prefix_instancenorm_4/Rsqrt"], "attr": {"T": {"type": "DT_FLOAT"}}}, {"name": "PartitionedCall/onnx_tf_prefix_instancenorm_4/mul_1", "op": "Mul", "input": ["PartitionedCall/transpose_14", "PartitionedCall/onnx_tf_prefix_instancenorm_4/Rsqrt"], "attr": {"T": {"type": "DT_FLOAT"}}}, {"name": "PartitionedCall/onnx_tf_prefix_instancenorm_4/add_1", "op": "Sub", "input": ["PartitionedCall/onnx_tf_prefix_instancenorm_4/mul_1", "PartitionedCall/onnx_tf_prefix_instancenorm_4/mul_2"], "attr": {"T": {"type": "DT_FLOAT"}}}, {"name": "PartitionedCall/Relu_3", "op": "Relu", "input": ["PartitionedCall/onnx_tf_prefix_instancenorm_4/add_1"], "attr": {"T": {"type": "DT_FLOAT"}}}, {"name": "PartitionedCall/cond_2/PartitionedCall/Relu_3/_110", "op": "Switch", "input": ["PartitionedCall/Relu_3", "PartitionedCall/All_2"], "attr": {"T": {"type": "DT_FLOAT"}}}, {"name": "PartitionedCall/cond_2/else/_105/cond_2/Shape", "op": "Shape", "input": ["PartitionedCall/cond_2/PartitionedCall/Relu_3/_110", "^PartitionedCall/cond_2/pivot_f/_107"], "attr": {"out_type": {"type": "DT_INT32"}, "T": {"type": "DT_FLOAT"}}}, {"name": "PartitionedCall/cond_2/then/_104/cond_2/MirrorPad", "op": "MirrorPad", "input": ["PartitionedCall/cond_2/PartitionedCall/Relu_3/_110:1", "PartitionedCall/cond_2/then/_104/cond_2/transpose"], "attr": {"Tpaddings": {"type": "DT_INT32"}, "T": {"type": "DT_FLOAT"}, "mode": {"s": "UkVGTEVDVA=="}}}, {"name": "PartitionedCall/cond_2/else/_105/cond_2/ArithmeticOptimizer/AddOpsRewrite_sub", "op": "AddN", "input": ["PartitionedCall/cond_2/else/_105/cond_2/Shape", "PartitionedCall/cond_2/else/_105/cond_2/GatherV2_1", "PartitionedCall/cond_2/else/_105/cond_2/GatherV2"], "attr": {"_grappler_ArithmeticOptimizer_AddOpsRe…
 "min": -0.2959907359936658, "scale": 0.0018271033086028753, "original_dtype": "float32"}}, {"name": "PartitionedCall/transpose_2/perm", "shape": [4], "dtype": "int32"}, {"name": "PartitionedCall/moments/mean/reduction_indices", "shape": [2], "dtype": "int32"}, {"name": "PartitionedCall/moments/variance/reduction_indices", "shape": [2], "dtype": "int32"}, {"name": "PartitionedCall/onnx_tf_prefix_instancenorm/add/y", "shape": [], "dtype": "float32", "quantization": {"dtype": "uint8", "min": 9.999999747378752e-06, "scale": 1.0, "original_dtype": "float32"}}, {"name": "PartitionedCall/Const_6", "shape": [4, 2], "dtype": "int32"}, {"name": "PartitionedCall/transpose_4/perm", "shape": [4], "dtype": "int32"}, {"name": "PartitionedCall/split_1", "shape": [3, 3, 16, 32], "dtype": "float32", "quantization": {"dtype": "uint8", "min": -0.7688616158915501, "scale": 0.00541451842177148, "original_dtype": "float32"}}, {"name": "unknown_3", "shape": [32], "dtype": "float32", "quantization": {"dtype": "uint8", "min": -0.24661530641948476, "scale": 0.0015510396630156274, "original_dtype": "float32"}}, {"name": "PartitionedCall/transpose_5/perm", "shape": [4], "dtype": "int32"}, {"name": "PartitionedCall/moments_1/mean/reduction_indices", "shape": [2], "dtype": "int32"}, {"name": "PartitionedCall/moments_1/variance/reduction_indices", "shape": [2], "dtype": "int32"}, {"name": "PartitionedCall/onnx_tf_prefix_instancenorm_1/add/y", "shape": [], "dtype": "float32", "quantization": {"dtype": "uint8", "min": 9.999999747378752e-06, "scale": 1.0, "original_dtype": "float32"}}, {"name": "PartitionedCall/Const_9", "shape": [4, 2], "dtype": "int32"}, {"name": "PartitionedCall/transpose_7/perm", "shape": [4], "dtype": "int32"}, {"name": "PartitionedCall/split_2", "shape": [3, 3, 32, 64], "dtype": "float32", "quantization": {"dtype": "uint8", "min": -1.1848257373361026, "scale": 0.00759503677779553, "original_dtype": "float32"}}, {"name": "unknown_5", "shape": [64], "dtype": "float32", "quantization": {"dtype": "uint8", "min": -0.2929955820242564, "scale": 0.0017235034236720965, "original_dtype": "float32"}}, {"name": "PartitionedCall/transpose_8/perm", "shape": [4], "dtype": "int32"}, {"name": "PartitionedCall/moments_2/mean/reduction_indices", "shape": [2], "dtype": "int32"}, {"name": "PartitionedCall/moments_2/variance/reduction_indices", "shape": [2], "dtype": "int32"}, {"name": "PartitionedCall/onnx_tf_prefix_instancenorm_2/add/y", "shape": [], "dtype": "float32", "quantization": {"dtype": "uint8", "min": 9.999999747378752e-06, "scale": 1.0, "original_dtype": "float32"}}, {"name": "PartitionedCall/Const_12", "shape": [8], "dtype": "int32"}, {"name": "PartitionedCall/All_1", "shape": [], "dtype": "bool"}, {"name": "PartitionedCall/transpose_10/perm", "shape": [4], "dtype": "int32"}, {"name": "PartitionedCall/Reshape_6", "shape": [3, 3, 64, 1], "dtype": "float32", "quantization": {"dtype": "uint8", "min": -0.5878694034090229, "scale": 0.004522072333915561, "original_dtype": "float32"}}, {"name": "unknown_7", "shape": [64], "dtype": "float32", "quantization": {"dtype": "uint8", "min": -0.3910832602603763, "scale": 0.002624719867519304, "original_dtype": "float32"}}, {"name": "PartitionedCall/transpose_11/perm", "shape": [4], "dtype": "int32"}, {"name": "PartitionedCall/moments_3/mean/reduction_indices", "shape": [2], "dtype": "int32"}, {"name": "PartitionedCall/moments_3/variance/reduction_indices", "shape": [2], "dtype": "int32"}, {"name": "PartitionedCall/onnx_tf_prefix_instancenorm_3/add/y", "shape": [], "dtype": "float32", "quantization": {"dtype": "uint8", "min": 9.999999747378752e-06, "scale": 1.0, "original_dtype": "float32"}}, {"name": "PartitionedCall/transpose_13/perm", "shape": [4], "dtype": "int32"}, {"name": "PartitionedCall/split_3", "shape": [1, 1, 64, 64], "dtype": "float32", "quantization": {"dtype": "uint8", "min": -0.8683290755047517, "scale": 0.005907000513637767, "original_dtype": "float32"}}, {"name": "unknown_9", "shape": [64], "dtype": "float32", "quantization": {"dtype": "uint8", "min": -0.21363902325723685, "scale": 0.0019421729387021532, "original_dtype": "float32"}}, {"name": "PartitionedCall/transpose_14/perm", "shape": [4], "dtype": "int32"}, {"name": "PartitionedCall/moments_4/mean/reduction_indices", "shape": [2], "dtype": "int32"}, {"name": "PartitionedCall/moments_4/variance/reduction_indices", "shape": [2], "dtype": "int32"}, {"name": "PartitionedCall/onnx_tf_prefix_instancenorm_4/add/y", "shape": [], "dtype": "float32", "quantization": {"dtype": "uint8", "min": 9.999999747378752e-06, "scale": 1.0, "original_dtype": "float32"}}, {"name": "PartitionedCall/Const_18", "shape": [8], "dtype": "int32"}, {"name": "PartitionedCall/All_2", "shape": [], "dtype": "bool"}, {"name": "PartitionedCall/transpose_16/perm", "shape": [4], "dtype": "int32"}, {"name": "PartitionedCall/Reshape_11", "shape": [3, 3, 64, 1], "dtype": "float32", "quantization": {"dtype": "uint8", "min": -0.4331154274005516, "scale": 0.003464923419204413, "original_dtype": "float32"}}, {"name": "unknown_11", "shape": [64], "dtype": "float32", "quantization": {"dtype": "uint8", "min": -0.24414855510580774, "scale": 0.002017756653767006, "original_dtype": "float32"}}, {"name": "PartitionedCall/transpose_17/perm", "shape": [4], "dtype": "int32"}, {"name": "PartitionedCall/moments_5/mean/reduction_indices", "shape": [2], "dtype": "int32"}, {"name": "PartitionedCall/moments_5/variance/reduction_indices", "shape": [2], "dtype": "int32"}, {"name": "PartitionedCall/onnx_tf_prefix_instancenorm_5/add/y", "shape": [], "dtype": "float32", "quantization": {"dtype": "uint8", "min": 9.999999747378752e-06, "scale": 1.0, "original_dtype": "float32"}}, {"name": "PartitionedCall/transpose_19/perm", "shape": [4], "dtype": "int32"}, {"name": "PartitionedCall/split_4", "shape": [1, 1, 64, 64], "dtype": "float32", "quantization": {"dtype": "uint8", "min": -0.6182737350463867, "scale": 0.004546130404752844, "original_dtype": "float32"}}, {"name": "unknown_13", "shape": [64], "dtype": "float32", "quantization": {"dtype": "uint8", "min": -0.2667341537919699, "scale": 0.0019469646262187583, "original_dtype": "float32"}}, {"name": "PartitionedCall/transpose_20/perm", "shape": [4], "dtype": "int32"}, {"name": "PartitionedCall/moments_6/mean/reduction_indices", "shape": [2], "dtype": "int32"}, {"name": "PartitionedCall/moments_6/variance/reduction_indices", "shape": [2], "dtype": "int32"}, {"name": "PartitionedCall/onnx_tf_prefix_instancenorm_6/add/y", "shape": [], "dtype": "float32", "quantization": {"dtype": "uint8", "min": 9.999999747378752e-06, "scale": 1.0, "original_dtype": "float32"}}, {"name": "PartitionedCall/Const_24", "shape": [8], "dtype": "int32"}, {"name": "PartitionedCall/All_3", "shape": [], "dtype": "bool"}, {"name": "PartitionedCall/transpose_22/perm", "shape": [4], "dtype": "int32"}, {"name": "PartitionedCall/Reshape_16", "shape": [3, 3, 64, 1], "dtype": "float32", "quantization": {"dtype": "uint8", "min": -0.5238061044730392, "scale": 0.004092235191195619, "original_dtype": "float32"}}, {"name": "unknown_15", "shape": [64], "dtype": "float32", "quantization": {"dtype": "uint8", "min": -0.26454026839312383, "scale": 0.0024723389569450828, "original_dtype": "float32"}}, {"name": "PartitionedCall/transpose_23/perm", "shape": [4], "dtype": "int32"}, {"name": "PartitionedCall/moments_7/mean/reduction_indices", "shape": [2], "dtype": "int32"}, {"name": "PartitionedCall/moments_7/variance/reduction_indices", "shape": [2], "dtype": "int32"}, {"name": "PartitionedCall/onnx_tf_prefix_instancenorm_7/add/y", "shape": [], "dtype": "float32", "quantization": {"dtype": "uint8", "min": 9.999999747378752e-06, "scale": 1.0, "original_dtype": "float32"}}, {"name": "PartitionedCall/transpose_25/perm", "shape": [4], "dtype": "int32"}, {"name": "PartitionedCall/split_5", "shape": [1, 1, 64, 64], "dtype": "float32", "quantization": {"dtype": "uint8", "min": -0.6726275371570214, "scale": 0.004839047029906628, "original_dtype": "float32"}}, {"name": "unknown_17", "shape": [64], "dtype": "float32", "quantization": {"dtype": "uint8", "min": -0.22710002701656493, "scale": 0.0017881891891068104, "original_dtype": "float32"}}, {"name": "PartitionedCall/transpose_26/perm", "shape": [4], "dtype": "int32"}, {"name": "PartitionedCall/moments_8/mean/reduction_indices", "shape": [2], "dtype": "int32"}, {"name": "PartitionedCall/moments_8/variance/reduction_indices", "shape": [2], "dtype": "int32"}, {"name": "PartitionedCall/onnx_tf_prefix_instancenorm_8/add/y", "shape": [], "dtype": "float32", "quantization": {"dtype": "uint8", "min": 9.999999747378752e-06, "scale": 1.0, "original_dtype": "float32"}}, {"name": "PartitionedCall/Const_30", "shape": [8], "dtype": "int32"}, {"name": "PartitionedCall/All_4", "shape": [], "dtype": "bool"}, {"name": "PartitionedCall/transpose_28/perm", "shape": [4], "dtype": "int32"}, {"name": "PartitionedCall/Reshape_21", "shape": [3, 3, 64, 1], "dtype": "float32", "quantization": {"dtype": "uint8", "min": -0.37266145266738593, "scale": 0.0032405343710207473, "original_dtype": "float32"}}, {"name": "unknown_19", "shape": [64], "dtype": "float32", "quantization": {"dtype": "uint8", "min": -0.2611106743999556, "scale": 0.0029338278022466922, "original_dtype": "float32"}}, {"name": "PartitionedCall/transpose_29/perm", "shape": [4], "dtype": "int32"}, {"name": "PartitionedCall/moments_9/mean/reduction_indices", "shape": [2], "dtype": "int32"}, {"name": "PartitionedCall/moments_9/variance/reduction_indices", "shape": [2], "dtype": "int32"}, {"name": "PartitionedCall/onnx_tf_prefix_instancenorm_9/add/y", "shape": [], "dtype": "float32", "quantization": {"dtype": "uint8", "min": 9.999999747378752e-06, "scale": 1.0, "original_dtype": "float32"}}, {"name": "PartitionedCall/transpose_31/perm", "shape": [4], "dtype": "int32"}, {"name": "PartitionedCall/split_6", "shape": [1, 1, 64, 64], "dtype": "float32", "quantization": {"dtype": "uint8", "min": -0.6044562073314891, "scale": 0.004380117444431081, "original_dtype": "float32"}}, {"name": "unknown_21", "shape": [64], "dtype": "float32", "quantization": {"dtype": "uint8", "min": -0.2348242071913738, "scale": 0.0018785936575309904, "original_dtype": "float32"}}, {"name": "PartitionedCall/transpose_32/perm", "shape": [4], "dtype": "int32"}, {"name": "PartitionedCall/moments_10/mean/reduction_indices", "shape": [2], "dtype": "int32"}, {"name": "PartitionedCall/moments_10/variance/reduction_indices", "shape": [2], "dtype": "int32"}, {"name": "PartitionedCall/onnx_tf_prefix_instancenorm_10/add/y", "shape": [], "dtype": "float32", "quantization": {"dtype": "uint8", "min": 9.999999747378752e-06, "scale": 1.0, "original_dtype": "float32"}}, {"name": "PartitionedCall/Const_36", "shape": [8], "dtype": "int32"}, {"name": "PartitionedCall/All_5", "shape": [], "dtype": "bool"}, {"name": "PartitionedCall/transpose_34/perm", "shape": [4], "dtype": "int32"}, {"name": "PartitionedCall/Reshape_26", "shape": [3, 3, 64, 1], "dtype": "float32", "quantization": {"dtype": "uint8", "min": -0.35956448667189655, "scale": 0.0029963707222658044, "original_dtype": "float32"}}, {"name": "unknown_23", "shape": [64], "dtype": "float32", "quantization": {"dtype": "uint8", "min": -0.24270834466990304, "scale": 0.00179783959014743, "original_dtype": "float32"}}, {"name": "PartitionedCall/transpose_35/perm", "shape": [4], "dtype": "int32"}, {"name": "PartitionedCall/moments_11/mean/reduction_indices", "shape": [2], "dtype": "int32"}, {"name": "PartitionedCall/moments_11/variance/reduction_indices", "shape": [2], "dtype": "int32"}, {"name": "PartitionedCall/onnx_tf_prefix_instancenorm_11/add/y", "shape": [], "dtype": "float32", "quantization": {"dtype": "uint8", "min": 9.999999747378752e-06, "scale": 1.0, "original_dtype": "float32"}}, {"name": "PartitionedCall/transpose_37/perm", "shape": [4], "dtype": "int32"}, {"name": "PartitionedCall/split_7", "shape": [1, 1, 64, 64], "dtype": "float32", "quantization": {"dtype": "uint8", "min": -0.6743563869420219, "scale": 0.010374713645261876, "original_dtype": "float32"}}, {"name": "unknown_25", "shape": [64], "dtype": "float32", "quantization": {"dtype": "uint8", "min": -0.22109887354514177, "scale": 0.002009989759501289, "original_dtype": "float32"}}, {"name": "PartitionedCall/transpose_38/perm", "shape": [4], "dtype": "int32"}, {"name": "PartitionedCall/moments_12/mean/reduction_indices", "shape": [2], "dtype": "int32"}, {"name": "PartitionedCall/moments_12/variance/reduction_indices", "shape": [2], "dtype": "int32"}, {"name": "PartitionedCall/onnx_tf_prefix_instancenorm_12/add/y", "shape": [], "dtype": "float32", "quantization": {"dtype": "uint8", "min": 9.999999747378752e-06, "scale": 1.0, "original_dtype": "float32"}}, {"name": "PartitionedCall/Const_42", "shape": [8], "dtype": "int32"}, {"name": "PartitionedCall/All_6", "shape": [], "dtype": "bool"}, {"name": "PartitionedCall/transpose_40/perm", "shape": [4], "dtype": "int32"}, {"name": "PartitionedCall/Reshape_31", "shape": [3, 3, 64, 1], "dtype": "float32", "quantization": {"dtype": "uint8", "min": -0.29930102965411015, "scale": 0.002625447628544826, "original_dtype": "float32"}}, {"name": "unknown_27", "shape": [64], "dtype": "float32", "quantization": {"dtype": "uint8", "min": -0.33362887969204025, "scale": 0.001928490634058036, "original_dtype": "float32"}}, {"name": "PartitionedCall/transpose_41/perm", "shape": [4], "dtype": "int32"}, {"name": "PartitionedCall/moments_13/mean/reduction_indices", "shape": [2], "dtype": "int32"}, {"name": "PartitionedCall/moments_13/variance/reduction_indices", "shape": [2], "dtype": "int32"}, {"name": "PartitionedCall/onnx_tf_prefix_instancenorm_13/add/y", "shape": [], "dtype": "float32", "quantization": {"dtype": "uint8", "min": 9.999999747378752e-06, "scale": 1.0, "original_dtype": "float32"}}, {"name": "PartitionedCall/transpose_43/perm", "shape": [4], "dtype": "int32"}, {"name": "PartitionedCall/split_8", "shape": [1, 1, 64, 64], "dtype": "float32", "quantization": {"dtype": "uint8", "min": -0.5909732257618623, "scale": 0.004477069892135321, "original_dtype": "float32"}}, {"name": "unknown_29", "shape": [64], "dtype": "float32", "quantization": {"dtype": "uint8", "min": -0.2657193716834573, "scale": 0.002214328097362144, "original_dtype": "float32"}}, {"name": "PartitionedCall/transpose_44/perm", "shape": [4], "dtype": "int32"}, {"name": "PartitionedCall/moments_14/mean/reduction_indices", "shape": [2], "dtype": "int32"}, {"name": "PartitionedCall/moments_14/variance/reduction_indices", "shape": [2], "dtype": "int32"}, {"name": "PartitionedCall/onnx_tf_prefix_instancenorm_14/add/y", "shape": [], "dtype": "float32", "quantization": {"dtype": "uint8", "min": 9.999999747378752e-06, "scale": 1.0, "original_dtype": "float32"}}, {"name": "PartitionedCall/Const_48", "shape": [8], "dtype": "int32"}, {"name": "PartitionedCall/All_7", "shape": [], "dtype": "bool"}, {"name": "PartitionedCall/transpose_46/perm", "shape": [4], "dtype": "int32"}, {"name": "PartitionedCall/Reshape_36", "shape": [3, 3, 64, 1], "dtype": "float32", "quantization": {"dtype": "uint8", "min": -0.5363102576311898, "scale": 0.004325082722832175, "original_dtype": "float32"}}, {"name": "unknown_31", "shape": [64], "dtype": "float32", "quantization": {"dtype": "uint8", "min": -0.26396388025844797, "scale": 0.001999726365594303, "original_dtype": "float32"}}, {"name": "PartitionedCall/transpose_47/perm", "shape": [4], "dtype": "int32"}, {"name": "PartitionedCall/moments_15/mean/reduction_indices", "shape": [2], "dtype": "int32"}, {"name": "PartitionedCall/moments_15/variance/reduction_indices", "shape": [2], "dtype": "int32"}, {"name": "PartitionedCall/onnx_tf_prefix_instancenorm_15/add/y", "shape": [], "dtype": "float32", "quantization": {"dtype": "uint8", "min": 9.999999747378752e-06, "scale": 1.0, "original_dtype": "float32"}}, {"name": "PartitionedCall/transpose_49/perm", "shape": [4], "dtype": "int32"}, {"name": "PartitionedCall/split_9", "shape": [1, 1, 64, 64], "dtype": "float32", "quantization": {"dtype": "uint8", "min": -0.837081454781925, "scale": 0.005936747906254787, "original_dtype": "float32"}}, {"name": "unknown_33", "shape": [64], "dtype": "float32", "quantization": {"dtype": "uint8", "min": -0.3335092043759776, "scale": 0.0020714857414656992, "original_dtype": "float32"}}, {"name": "PartitionedCall/transpose_50/perm", "shape": [4], "dtype": "int32"}, {"name": "PartitionedCall/moments_16/mean/reduction_indices", "shape": [2], "dtype": "int32"}, {"name": "PartitionedCall/moments_16/variance/reduction_indices", "shape": [2], "dtype": "int32"}, {"name": "PartitionedCall/onnx_tf_prefix_instancenorm_16/add/y", "shape": [], "dtype": "float32", "quantization": {"dtype": "uint8", "min": 9.999999747378752e-06, "scale": 1.0, "original_dtype": "float32"}}, {"name": "PartitionedCall/Const_54", "shape": [8], "dtype": "int32"}, {"name": "PartitionedCall/All_8", "shape": [], "dtype": "bool"}, {"name": "PartitionedCall/transpose_52/perm", "shape": [4], "dtype": "int32"}, {"name": "PartitionedCall/Reshape_41", "shape": [3, 3, 64, 1], "dtype": "float32", "quantization": {"dtype": "uint8", "min": -0.5065949885284199, "scale": 0.003697773638893576, "original_dtype": "float32"}}, {"name": "unknown_35", "shape": [64], "dtype": "float32", "quantization": {"dtype": "uint8", "min": -0.2472518811038896, "scale": 0.001766084865027783, "original_dtype": "float32"}}, {"name": "PartitionedCall/transpose_53/perm", "shape": [4], "dtype": "int32"}, {"name": "PartitionedCall/moments_17/mean/reduction_indices", "shape": [2], "dtype": "int32"}, {"name": "PartitionedCall/moments_17/variance/reduction_indices", "shape": [2], "dtype": "int32"}, {"name": "PartitionedCall/onnx_tf_prefix_instancenorm_17/add/y", "shape": [], "dtype": "float32", "quantization": {"dtype": "uint8", "min": 9.999999747378752e-06, "scale": 1.0, "original_dtype": "float32"}}, {"name": "PartitionedCall/transpose_55/perm", "shape": [4], "dtype": "int32"}, {"name": "PartitionedCall/split_10", "shape": [1, 1, 64, 64], "dtype": "float32", "quantization": {"dtype": "uint8", "min": -0.5726718678193934, "scale": 0.004473998967339011, "original_dtype": "float32"}}, {"name": "unknown_37", "shape": [64], "dtype": "float32", "quantization": {"dtype": "uint8", "min": -0.3465212076902389, "scale": 0.002264844494707444, "original_dtype": "float32"}}, {"name": "PartitionedCall/transpose_56/perm", "shape": [4], "dtype": "int32"}, {"name": "PartitionedCall/moments_18/mean/reduction_indices", "shape": [2], "dtype": "int32"}, {"name": "PartitionedCall/moments_18/variance/reduction_indices", "shape": [2], "dtype": "int32"}, {"name": "PartitionedCall/onnx_tf_prefix_instancenorm_18/add/y", "shape": [], "dtype": "float32", "quantization": {"dtype": "uint8", "min": 9.999999747378752e-06, "scale": 1.0, "original_dtype": "float32"}}, {"name": "PartitionedCall/Const_60", "shape": [8], "dtype": "int32"}, {"name": "PartitionedCall/All_9", "shape": [], "dtype": "bool"}, {"name": "PartitionedCall/transpose_58/perm", "shape": [4], "dtype": "int32"}, {"name": "PartitionedCall/Reshape_46", "shape": [3, 3, 64, 1], "dtype": "float32", "quantization": {"dtype": "uint8", "min": -0.6442821867325728, "scale": 0.004635123645558077, "original_dtype": "float32"}}, {"name": "unknown_39", "shape": [64], "dtype": "float32", "quantization": {"dtype": "uint8", "min": -0.23782106690547045, "scale": 0.0020326586914997473, "original_dtype": "float32"}}, {"name": "PartitionedCall/transpose_59/perm", "shape": [4], "dtype": "int32"}, {"name": "PartitionedCall/moments_19/mean/reduction_indices", "shape": [2], "dtype": "int32"}, {"name": "PartitionedCall/moments_19/variance/reduction_indices", "shape": [2], "dtype": "int32"}, {"name": "PartitionedCall/onnx_tf_prefix_instancenorm_19/add/y", "shape": [], "dtype": "float32", "quantization": {"dtype": "uint8", "min": 9.999999747378752e-06, "scale": 1.0, "original_dtype": "float32"}}, {"name": "PartitionedCall/transpose_61/perm", "shape": [4], "dtype": "int32"}, {"name": "PartitionedCall/split_11", "shape": [1, 1, 64, 64], "dtype": "float32", "quantization": {"dtype": "uint8", "min": -0.5387417737175437, "scale": 0.004810194408192354, "original_dtype": "float32"}}, {"name": "unknown_41", "shape": [64], "dtype": "float32", "quantization": {"dtype": "uint8", "min": -0.17239488485981438, "scale": 0.0016418560462839464, "original_dtype": "float32"}}, {"name": "PartitionedCall/transpose_62/perm", "shape": [4], "dtype": "int32"}, {"name": "PartitionedCall/moments_20/mean/reduction_indices", "shape": [2], "dtype": "int32"}, {"name": "PartitionedCall/moments_20/variance/reduction_indices", "shape": [2], "dtype": "int32"}, {"name": "PartitionedCall/onnx_tf_prefix_instancenorm_20/add/y", "shape": [], "dtype": "float32", "quantization": {"dtype": "uint8", "min": 9.999999747378752e-06, "scale": 1.0, "original_dtype": "float32"}}, {"name": "PartitionedCall/Const_66", "shape": [8], "dtype": "int32"}, {"name": "PartitionedCall/All_10", "shape": [], "dtype": "bool"}, {"name": "PartitionedCall/transpose_64/perm", "shape": [4], "dtype": "int32"}, {"name": "PartitionedCall/Reshape_51", "shape": [3, 3, 64, 1], "dtype": "float32", "quantization": {"dtype": "uint8", "min": -0.45309893290201825, "scale": 0.0037139256795247397, "original_dtype": "float32"}}, {"name": "unknown_43", "shape": [64], "dtype": "float32", "quantization": {"dtype": "uint8", "min": -0.22189319940174326, "scale": 0.0019464315736995024, "original_dtype": "float32"}}, {"name": "PartitionedCall/transpose_65/perm", "shape": [4], "dtype": "int32"}, {"name": "PartitionedCall/moments_21/mean/reduction_indices", "shape": [2], "dtype": "int32"}, {"name": "PartitionedCall/moments_21/variance/reduction_indices", "shape": [2], "dtype": "int32"}, {"name": "PartitionedCall/onnx_tf_prefix_instancenorm_21/add/y", "shape": [], "dtype": "float32", "quantization": {"dtype": "uint8", "min": 9.999999747378752e-06, "scale": 1.0, "original_dtype": "float32"}}, {"name": "PartitionedCall/transpose_67/perm", "shape": [4], "dtype": "int32"}, {"name": "PartitionedCall/split_12", "shape": [1, 1, 64, 64], "dtype": "float32", "quantization": {"dtype": "uint8", "min": -0.4902171439984266, "scale": 0.0038599775117986344, "original_dtype": "float32"}}, {"name": "unknown_45", "shape": [64], "dtype": "float32", "quantization": {"dtype": "uint8", "min": -0.19482641313590254, "scale": 0.001679538044275022, "original_dtype": "float32"}}, {"name": "PartitionedCall/transpose_68/perm", "shape": [4], "dtype": "int32"}, {"name": "PartitionedCall/moments_22/mean/reduction_indices", "shape": [2], "dtype": "int32"}, {"name": "PartitionedCall/moments_22/variance/reduction_indices", "shape": [2], "dtype": "int32"}, {"name": "PartitionedCall/onnx_tf_prefix_instancenorm_22/add/y", "shape": [], "dtype": "float32", "quantization": {"dtype": "uint8", "min": 9.999999747378752e-06, "scale": 1.0, "original_dtype": "float32"}}, {"name": "PartitionedCall/Const_72", "shape": [8], "dtype": "int32"}, {"name": "PartitionedCall/All_11", "shape": [], "dtype": "bool"}, {"name": "PartitionedCall/transpose_70/perm", "shape": [4], "dtype": "int32"}, {"name": "PartitionedCall/Reshape_56", "shape": [3, 3, 64, 1], "dtype": "float32", "quantization": {"dtype": "uint8", "min": -0.42501447481267596, "scale": 0.003269342113943661, "original_dtype": "float32"}}, {"name": "unknown_47", "shape": [64], "dtype": "float32", "quantization": {"dtype": "uint8", "min": -0.25644723948310405, "scale": 0.0019879630967682485, "original_dtype": "float32"}}, {"name": "PartitionedCall/transpose_71/perm", "shape": [4], "dtype": "int32"}, {"name": "PartitionedCall/moments_23/mean/reduction_indices", "shape": [2], "dtype": "int32"}, {"name": "PartitionedCall/moments_23/variance/reduction_indices", "shape": [2], "dtype": "int32"}, {"name": "PartitionedCall/onnx_tf_prefix_instancenorm_23/add/y", "shape": [], "dtype": "float32", "quantization": {"dtype": "uint8", "min": 9.999999747378752e-06, "scale": 1.0, "original_dtype": "float32"}}, {"name": "PartitionedCall/transpose_73/perm", "shape": [4], "dtype": "int32"}, {"name": "PartitionedCall/split_13", "shape": [1, 1, 64, 64], "dtype": "float32", "quantization": {"dtype": "uint8", "min": -0.5355308066396152, "scale": 0.0037980908272313135, "original_dtype": "float32"}}, {"name": "unknown_49", "shape": [64], "dtype": "float32", "quantization": {"dtype": "uint8", "min": -0.2116940091638004, "scale": 0.0015681037715837068, "original_dtype": "float32"}}, {"name": "PartitionedCall/transpose_74/perm", "shape": [4], "dtype": "int32"}, {"name": "PartitionedCall/moments_24/mean/reduction_indices", "shape": [2], "dtype": "int32"}, {"name": "PartitionedCall/moments_24/variance/reduction_indices", "shape": [2], "dtype": "int32"}, {"name": "PartitionedCall/onnx_tf_prefix_instancenorm_24/add/y", "shape": [], "dtype": "float32", "quantization": {"dtype": "uint8", "min": 9.999999747378752e-06, "scale": 1.0, "original_dtype": "float32"}}, {"name": "PartitionedCall/Const_78", "shape": [8], "dtype": "int32"}, {"name": "PartitionedCall/All_12", "shape": [], "dtype": "bool"}, {"name": "PartitionedCall/transpose_76/perm", "shape": [4], "dtype": "int32"}, {"name": "PartitionedCall/Reshape_61", "shape": [3, 3, 64, 1], "dtype": "float32", "quantization": {"dtype": "uint8", "min": -0.47930195284824745, "scale": 0.003686938098832673, "original_dtype": "float32"}}, {"name": "unknown_51", "shape": [64], "dtype": "float32", "quantization": {"dtype": "uint8", "min": -0.2303191114874447, "scale": 0.002350195015178007, "original_dtype": "float32"}}, {"name": "PartitionedCall/transpose_77/perm", "shape": [4], "dtype": "int32"}, {"name": "PartitionedCall/moments_25/mean/reduction_indices", "shape": [2], "dtype": "int32"}, {"name": "PartitionedCall/moments_25/variance/reduction_indices", "shape": [2], "dtype": "int32"}, {"name": "PartitionedCall/onnx_tf_prefix_instancenorm_25/add/y", "shape": [], "dtype": "float32", "quantization": {"dtype": "uint8", "min": 9.999999747378752e-06, "scale": 1.0, "original_dtype": "float32"}}, {"name": "PartitionedCall/transpose_79/perm", "shape": [4], "dtype": "int32"}, {"name": "PartitionedCall/split_14", "shape": [1, 1, 64, 64], "dtype": "float32", "quantization": {"dtype": "uint8", "min": -0.5054570348823771, "scale": 0.003744126184313905, "original_dtype": "float32"}}, {"name": "unknown_53", "shape": [64], "dtype": "float32", "quantization": {"dtype": "uint8", "min": -0.24027708640285567, "scale": 0.0018482852800219666, "original_dtype": "float32"}}, {"name": "PartitionedCall/transpose_80/perm", "shape": [4], "dtype": "int32"}, {"name": "PartitionedCall/moments_26/mean/reduction_indices", "shape": [2], "dtype": "int32"}, {"name": "PartitionedCall/moments_26/variance/reduction_indices", "shape": [2], "dtype": "int32"}, {"name": "PartitionedCall/onnx_tf_prefix_instancenorm_26/add/y", "shape": [], "dtype": "float32", "quantization": {"dtype": "uint8", "min": 9.999999747378752e-06, "scale": 1.0, "original_dtype": "float32"}}, {"name": "PartitionedCall/Const_84", "shape": [8], "dtype": "int32"}, {"name": "PartitionedCall/All_13", "shape": [], "dtype": "bool"}, {"name": "PartitionedCall/transpose_82/perm", "shape": [4], "dtype": "int32"}, {"name": "PartitionedCall/Reshape_66", "shape": [3, 3, 64, 1], "dtype": "float32", "quantization": {"dtype": "uint8", "min": -0.6296036364985448, "scale": 0.004918778410144881, "original_dtype": "float32"}}, {"name": "unknown_55", "shape": [64], "dtype": "float32", "quantization": {"dtype": "uint8", "min": -0.2180181250852697, "scale": 0.0018168177090439142, "original_dtype": "float32"}}, {"name": "PartitionedCall/transpose_83/perm", "shape": [4], "dtype": "int32"}, {"name": "PartitionedCall/moments_27/mean/reduction_indices", "shape": [2], "dtype": "int32"}, {"name": "PartitionedCall/moments_27/variance/reduction_indices", "shape": [2], "dtype": "int32"}, {"name": "PartitionedCall/onnx_tf_prefix_instancenorm_27/add/y", "shape": [], "dtype": "float32", "quantization": {"dtype": "uint8", "min": 9.999999747378752e-06, "scale": 1.0, "original_dtype": "float32"}}, {"name": "PartitionedCall/transpose_85/perm", "shape": [4], "dtype": "int32"}, {"name": "PartitionedCall/split_15", "shape": [1, 1, 64, 64], "dtype": "float32", "quantization": {"dtype": "uint8", "min": -0.7023238245178671, "scale": 0.005361250568838681, "original_dtype": "float32"}}, {"name": "unknown_57", "shape": [64], "dtype": "float32", "quantization": {"dtype": "uint8", "min": -0.18452317293952494, "scale": 0.0018638704337325751, "original_dtype": "float32"}}, {"name": "PartitionedCall/transpose_86/perm", "shape": [4], "dtype": "int32"}, {"name": "PartitionedCall/moments_28/mean/reduction_indices", "shape": [2], "dtype": "int32"}, {"name": "PartitionedCall/moments_28/variance/reduction_indices", "shape": [2], "dtype": "int32"}, {"name": "PartitionedCall/onnx_tf_prefix_instancenorm_28/add/y", "shape": [], "dtype": "float32", "quantization": {"dtype": "uint8", "min": 9.999999747378752e-06, "scale": 1.0, "original_dtype": "float32"}}, {"name": "PartitionedCall/Const_90", "shape": [8], "dtype": "int32"}, {"name": "PartitionedCall/All_14", "shape": [], "dtype": "bool"}, {"name": "PartitionedCall/transpose_88/perm", "shape": [4], "dtype": "int32"}, {"name": "PartitionedCall/Reshape_71", "shape": [3, 3, 64, 1], "dtype": "float32", "quantization": {"dtype": "uint8", "min": -0.6057204985151105, "scale": 0.004554289462519627, "original_dtype": "float32"}}, {"name": "unknown_59", "shape": [64], "dtype": "float32", "quantization": {"dtype": "uint8", "min": -0.23602702570896522, "scale": 0.002107384158115761, "original_dtype": "float32"}}, {"name": "PartitionedCall/transpose_89/perm", "shape": [4], "dtype": "int32"}, {"name": "PartitionedCall/moments_29/mean/reduction_indices", "shape": [2], "dtype": "int32"}, {"name": "PartitionedCall/moments_29/variance/reduction_indices", "shape": [2], "dtype": "int32"}, {"name": "PartitionedCall/onnx_tf_prefix_instancenorm_29/add/y", "shape": [], "dtype": "float32", "quantization": {"dtype": "uint8", "min": 9.999999747378752e-06, "scale": 1.0, "original_dtype": "float32"}}, {"name": "PartitionedCall/transpose_91/perm", "shape": [4], "dtype": "int32"}, {"name": "PartitionedCall/split_16", "shape": [1, 1, 64, 64], "dtype": "float32", "quantization": {"dtype": "uint8", "min": -0.5302537656297871, "scale": 0.003787526897355622, "original_dtype": "float32"}}, {"name": "unknown_61", "shape": [64], "dtype": "float32", "quantization": {"dtype": "uint8", "min": -0.17425366733588424, "scale": 0.0014767259943719003, "original_dtype": "float32"}}, {"name": "PartitionedCall/transpose_92/perm", "shape": [4], "dtype": "int32"}, {"name": "PartitionedCall/moments_30/mean/reduction_indices", "shape": [2], "dtype": "int32"}, {"name": "PartitionedCall/moments_30/variance/reduction_indices", "shape": [2], "dtype": "int32"}, {"name": "PartitionedCall/onnx_tf_prefix_instancenorm_30/add/y", "shape": [], "dtype": "float32", "quantization": {"dtype": "uint8", "min": 9.999999747378752e-06, "scale": 1.0, "original_dtype": "float32"}}, {"name": "PartitionedCall/Const_96", "shape": [8], "dtype": "int32"}, {"name": "PartitionedCall/All_15", "shape": [], "dtype": "bool"}, {"name": "PartitionedCall/transpose_94/perm", "shape": [4], "dtype": "int32"}, {"name": "PartitionedCall/Reshape_76", "shape": [3, 3, 64, 1], "dtype": "float32", "quantization": {"dtype": "uint8", "min": -0.6652737954083611, "scale": 0.0048208246044084135, "original_dtype": "float32"}}, {"name": "unknown_63", "shape": [64], "dtype": "float32", "quantization": {"dtype": "uint8", "min": -0.3685910434699526, "scale": 0.0022893853631674073, "original_dtype": "float32"}}, {"name": "PartitionedCall/transpose_95/perm", "shape": [4], "dtype": "int32"}, {"name": "PartitionedCall/moments_31/mean/reduction_indices", "shape": [2], "dtype": "int32"}, {"name": "PartitionedCall/moments_31/variance/reduction_indices", "shape": [2], "dtype": "int32"}, {"name": "PartitionedCall/onnx_tf_prefix_instancenorm_31/add/y", "shape": [], "dtype": "float32", "quantization": {"dtype": "uint8", "min": 9.999999747378752e-06, "scale": 1.0, "original_dtype": "float32"}}, {"name": "PartitionedCall/transpose_97/perm", "shape": [4], "dtype": "int32"}, {"name": "PartitionedCall/split_17", "shape": [1, 1, 64, 64], "dtype": "float32", "quantization": {"dtype": "uint8", "min": -0.5007850632948033, "scale": 0.004280214216194901, "original_dtype": "float32"}}, {"name": "unknown_65", "shape": [64], "dtype": "float32", "quantization": {"dtype": "uint8", "min": -0.19183123672709745, "scale": 0.001844531122375937, "original_dtype": "float32"}}, {"name": "PartitionedCall/transpose_98/perm", "shape": [4], "dtype": "int32"}, {"name": "PartitionedCall/moments_32/mean/reduction_indices", "shape": [2], "dtype": "int32"}, {"name": "PartitionedCall/moments_32/variance/reduction_indices", "shape": [2], "dtype": "int32"}, {"name": "PartitionedCall/onnx_tf_prefix_instancenorm_32/add/y", "shape": [], "dtype": "float32", "quantization": {"dtype": "uint8", "min": 9.999999747378752e-06, "scale": 1.0, "original_dtype": "float32"}}, {"name": "PartitionedCall/Const_102", "shape": [8], "dtype": "int32"}, {"name": "PartitionedCall/All_16", "shape": [], "dtype": "bool"}, {"name": "PartitionedCall/transpose_100/perm", "shape": [4], "dtype": "int32"}, {"name": "PartitionedCall/Reshape_81", "shape": [3, 3, 64, 1], "dtype": "float32", "quantization": {"dtype": "uint8", "min": -0.5391189813613891, "scale": 0.0045304116080789, "original_dtype": "float32"}}, {"name": "unknown_67", "shape": [64], "dtype": "float32", "quantization": {"dtype": "uint8", "min": -0.3335756654832877, "scale": 0.0023326969614215925, "original_dtype": "float32"}}, {"name": "PartitionedCall/transpose_101/perm", "shape": [4], "dtype": "int32"}, {"name": "PartitionedCall/moments_33/mean/reduction_indices", "shape": [2], "dtype": "int32"}, {"name": "PartitionedCall/moments_33/variance/reduction_indices", "shape": [2], "dtype": "int32"}, {"name": "PartitionedCall/onnx_tf_prefix_instancenorm_33/add/y", "shape": [], "dtype": "float32", "quantization": {"dtype": "uint8", "min": 9.999999747378752e-06, "scale": 1.0, "original_dtype": "float32"}}, {"name": "PartitionedCall/transpose_103/perm", "shape": [4], "dtype": "int32"}, {"name": "PartitionedCall/split_18", "shape": [1, 1, 64, 64], "dtype": "float32", "quantization": {"dtype": "uint8", "min": -0.45333038182819585, "scale": 0.003942003320245181, "original_dtype": "float32"}}, {"name": "unknown_69", "shape": [64], "dtype": "float32", "quantization": {"dtype": "uint8", "min": -0.1509144523564507, "scale": 0.0013973560403375065, "original_dtype": "float32"}}, {"name": "PartitionedCall/transpose_104/perm", "shape": [4], "dtype": "int32"}, {"name": "PartitionedCall/moments_34/mean/reduction_indices", "shape": [2], "dtype": "int32"}, {"name": "PartitionedCall/moments_34/variance/reduction_indices", "shape": [2], "dtype": "int32"}, {"name": "PartitionedCall/onnx_tf_prefix_instancenorm_34/add/y", "shape": [], "dtype": "float32", "quantization": {"dtype": "uint8", "min": 9.999999747378752e-06, "scale": 1.0, "original_dtype": "float32"}}, {"name": "PartitionedCall/Const_108", "shape": [8], "dtype": "int32"}, {"name": "PartitionedCall/All_17", "shape": [], "dtype": "bool"}, {"name": "PartitionedCall/transpose_106/perm", "shape": [4], "dtype": "int32"}, {"name": "PartitionedCall/Reshape_86", "shape": [3, 3, 64, 1], "dtype": "float32", "quantization": {"dtype": "uint8", "min": -0.5274998375013763, "scale": 0.0042540309475917444, "original_dtype": "float32"}}, {"name": "unknown_71", "shape": [64], "dtype": "float32", "quantization": {"dtype": "uint8", "min": -0.4076830387115479, "scale": 0.002664595024258483, "original_dtype": "float32"}}, {"name": "PartitionedCall/transpose_107/perm", "shape": [4], "dtype": "int32"}, {"name": "PartitionedCall/moments_35/mean/reduction_indices", "shape": [2], "dtype": "int32"}, {"name": "PartitionedCall/moments_35/variance/reduction_indices", "shape": [2], "dtype": "int32"}, {"name": "PartitionedCall/onnx_tf_prefix_instancenorm_35/add/y", "shape": [], "dtype": "float32", "quantization": {"dtype": "uint8", "min": 9.999999747378752e-06, "scale": 1.0, "original_dtype": "float32"}}, {"name": "PartitionedCall/transpose_109/perm", "shape": [4], "dtype": "int32"}, {"name": "PartitionedCall/split_19", "shape": [1, 1, 64, 64], "dtype": "float32", "quantization": {"dtype": "uint8", "min": -0.5434446636368246, "scale": 0.005276161782881793, "original_dtype": "float32"}}, {"name": "unknown_73", "shape": [64], "dtype": "float32", "quantization": {"dtype": "uint8", "min": -0.3467449576831331, "scale": 0.0021536953893362305, "original_dtype": "float32"}}, {"name": "PartitionedCall/transpose_110/perm", "shape": [4], "dtype": "int32"}, {"name": "PartitionedCall/moments_36/mean/reduction_indices", "shape": [2], "dtype": "int32"}, {"name": "PartitionedCall/moments_36/variance/reduction_indices", "shape": [2], "dtype": "int32"}, {"name": "PartitionedCall/onnx_tf_prefix_instancenorm_36/add/y", "shape": [], "dtype": "float32", "quantization": {"dtype": "uint8", "min": 9.999999747378752e-06, "scale": 1.0, "original_dtype": "float32"}}, {"name": "PartitionedCall/Const_114", "shape": [8], "dtype": "int32"}, {"name": "PartitionedCall/All_18", "shape": [], "dtype": "bool"}, {"name": "PartitionedCall/transpose_112/perm", "shape": [4], "dtype": "int32"}, {"name": "PartitionedCall/Reshape_91", "shape": [3, 3, 64, 1], "dtype": "float32", "quantization": {"dtype": "uint8", "min": -0.6991405393563065, "scale": 0.005378004148894665, "original_dtype": "float32"}}, {"name": "unknown_75", "shape": [64], "dtype": "float32", "quantization": {"dtype": "uint8", "min": -0.3083631571601419, "scale": 0.0022841715345195694, "original_dtype": "float32"}}, {"name": "PartitionedCall/transpose_113/perm", "shape": [4], "dtype": "int32"}, {"name": "PartitionedCall/moments_37/mean/reduction_indices", "shape": [2], "dtype": "int32"}, {"name": "PartitionedCall/moments_37/variance/reduction_indices", "shape": [2], "dtype": "int32"}, {"name": "PartitionedCall/onnx_tf_prefix_instancenorm_37/add/y", "shape": [], "dtype": "float32", "quantization": {"dtype": "uint8", "min": 9.999999747378752e-06, "scale": 1.0, "original_dtype": "float32"}}, {"name": "PartitionedCall/transpose_115/perm", "shape": [4], "dtype": "int32"}, {"name": "PartitionedCall/split_20", "shape": [1, 1, 64, 64], "dtype": "float32", "quantization": {"dtype": "uint8", "min": -0.4679866296403548, "scale": 0.0038676580962012795, "original_dtype": "float32"}}, {"name": "unknown_77", "shape": [64], "dtype": "float32", "quantization": {"dtype": "uint8", "min": -0.15763330693338432, "scale": 0.001487106669182871, "original_dtype": "float32"}}, {"name": "PartitionedCall/transpose_116/perm", "shape": [4], "dtype": "int32"}, {"name": "PartitionedCall/moments_38/mean/reduction_indices", "shape": [2], "dtype": "int32"}, {"name": "PartitionedCall/moments_38/variance/reduction_indices", "shape": [2], "dtype": "int32"}, {"name": "PartitionedCall/onnx_tf_prefix_instancenorm_38/add/y", "shape": [], "dtype": "float32", "quantization": {"dtype": "uint8", "min": 9.999999747378752e-06, "scale": 1.0, "original_dtype": "float32"}}, {"name": "PartitionedCall/transpose_118/perm", "shape": [4], "dtype": "int32"}, {"name": "PartitionedCall/Pad_2/paddings", "shape": [4, 2], "dtype": "int32"}, {"name": "PartitionedCall/strided_slice_6/stack", "shape": [1], "dtype": "int32"}, {"name": "PartitionedCall/strided_slice_6/stack_1", "shape": [1], "dtype": "int32"}, {"name": "PartitionedCall/strided_slice_6/stack_2", "shape": [1], "dtype": "int32"}, {"name": "unknown_79", "shape": [32], "dtype": "float32", "quantization": {"dtype": "uint8", "min": -0.18924527454609963, "scale": 0.0013051398244558596, "original_dtype": "float32"}}, {"name": "PartitionedCall/transpose_119/perm", "shape": [4], "dtype": "int32"}, {"name": "PartitionedCall/moments_39/mean/reduction_indices", "shape": [2], "dtype": "int32"}, {"name": "PartitionedCall/moments_39/variance/reduction_indices", "shape": [2], "dtype": "int32"}, {"name": "PartitionedCall/onnx_tf_prefix_instancenorm_39/add/y", "shape": [], "dtype": "float32", "quantization": {"dtype": "uint8", "min": 9.999999747378752e-06, "scale": 1.0, "original_dtype": "float32"}}, {"name": "PartitionedCall/transpose_121/perm", "shape": [4], "dtype": "int32"}, {"name": "PartitionedCall/Pad_3/paddings", "shape": [4, 2], "dtype": "int32"}, {"name": "PartitionedCall/strided_slice_13/stack", "shape": [1], "dtype": "int32"}, {"name": "PartitionedCall/strided_slice_13/stack_1", "shape": [1], "dtype": "int32"}, {"name": "PartitionedCall/strided_slice_13/stack_2", "shape": [1], "dtype": "int32"}, {"name": "unknown_81", "shape": [16], "dtype": "float32", "quantization": {"dtype": "uint8", "min": -0.13975582859095403, "scale": 0.0011944942614611456, "original_dtype": "float32"}}, {"name": "PartitionedCall/transpose_122/perm", "shape": [4], "dtype": "int32"}, {"name": "PartitionedCall/moments_40/mean/reduction_indices", "shape": [2], "dtype": "int32"}, {"name": "PartitionedCall/moments_40/variance/reduction_indices", "shape": [2], "dtype": "int32"}, {"name": "PartitionedCall/onnx_tf_prefix_instancenorm_40/add/y", "shape": [], "dtype": "float32", "quantization": {"dtype": "uint8", "min": 9.999999747378752e-06, "scale": 1.0, "original_dtype": "float32"}}, {"name": "PartitionedCall/Const_124", "shape": [8], "dtype": "int32"}, {"name": "PartitionedCall/All_19", "shape": [], "dtype": "bool"}, {"name": "PartitionedCall/transpose_124/perm", "shape": [4], "dtype": "int32"}, {"name": "PartitionedCall/split_23", "shape": [7, 7, 16, 3], "dtype": "float32", "quantization": {"dtype": "uint8", "min": -0.35639746913722914, "scale": 0.0027205913674597645, "original_dtype": "float32"}}, {"name": "unknown_83", "shape": [3], "dtype": "float32", "quantization": {"dtype": "uint8", "min": -0.062463026493787766, "scale": 0.0002308160733139398, "original_dtype": "float32"}}, {"name": "PartitionedCall/transpose_125/perm", "shape": [4], "dtype": "int32"}, {"name": "PartitionedCall/Reshape_100/shape", "shape": [4], "dtype": "int32"}, {"name": "PartitionedCall/cond/else/_87/cond/Shape", "shape": [4], "dtype": "int32"}, {"name": "PartitionedCall/cond/else/_87/cond/range_1", "shape": [4], "dtype": "int32"}, {"name": "PartitionedCall/cond/else/_87/cond/GatherV2_1/axis", "shape": [], "dtype": "int32"}, {"name": "PartitionedCall/cond/else/_87/cond/range", "shape": [4], "dtype": "int32"}, {"name": "PartitionedCall/cond/else/_87/cond/GatherV2/axis", "shape": [], "dtype": "int32"}, {"name": "PartitionedCall/cond_1/else/_96/cond_1/range_1", "shape": [4], "dtype": "int32"}, {"name": "PartitionedCall/cond_1/else/_96/cond_1/GatherV2_1/axis", "shape": [], "dtype": "int32"}, {"name": "PartitionedCall/cond_1/else/_96/cond_1/range", "shape": [4], "dtype": "int32"}, {"name": "PartitionedCall/cond_1/else/_96/cond_1/GatherV2/axis", "shape": [], "dtype": "int32"}, {"name": "PartitionedCall/cond_2/else/_105/cond_2/range_1", "shape": [4], "dtype": "int32"}, {"name": "PartitionedCall/cond_2/else/_105/cond_2/GatherV2_1/axis", "shape": [], "dtype": "int32"}, {"name": "PartitionedCall/cond_2/else/_105/cond_2/range", "shape": [4], "dtype": "int32"}, {"name": "PartitionedCall/cond_2/else/_105/cond_2/GatherV2/axis", "shape": [], "dtype": "int32"}, {"name": "PartitionedCall/cond_3/else/_114/cond_3/range_1", "shape": [4], "dtype": "int32"}, {"name": "PartitionedCall/cond_3/else/_114/cond_3/GatherV2_1/axis", "shape": [], "dtype": "int32"}, {"name": "PartitionedCall/cond_3/else/_114/cond_3/range", "shape": [4], "dtype": "int32"}, {"name": "PartitionedCall/cond_3/else/_114/cond_3/GatherV2/axis", "shape": [], "dtype": "int32"}, {"name": "PartitionedCall/cond_4/else/_123/cond_4/range_1", "shape": [4], "dtype": "int32"}, {"name": "PartitionedCall/cond_4/else/_123/cond_4/GatherV2_1/axis", "shape": [], "dtype": "int32"}, {"name": "PartitionedCall/cond_4/else/_123/cond_4/range", "shape": [4], "dtype": "int32"}, {"name": "PartitionedCall/cond_4/else/_123/cond_4/GatherV2/axis", "shape": [], "dtype": "int32"}, {"name": "PartitionedCall/cond_5/else/_132/cond_5/range_1", "shape": [4], "dtype": "int32"}, {"name": "PartitionedCall/cond_5/else/_132/cond_5/GatherV2_1/axis", "shape": [], "dtype": "int32"}, {"name": "PartitionedCall/cond_5/else/_132/cond_5/range", "shape": [4], "dtype": "int32"}, {"name": "PartitionedCall/cond_5/else/_132/cond_5/GatherV2/axis", "shape": [], "dtype": "int32"}, {"name": "PartitionedCall/cond_6/else/_141/cond_6/range_1", "shape": [4], "dtype": "int32"}, {"name": "PartitionedCall/cond_6/else/_141/cond_6/GatherV2_1/axis", "shape": [], "dtype": "int32"}, {"name": "PartitionedCall/cond_6/else/_141/cond_6/range", "shape": [4], "dtype": "int32"}, {"name": "PartitionedCall/cond_6/else/_141/cond_6/GatherV2/axis", "shape": [], "dtype": "int32"}, {"name": "PartitionedCall/cond_7/else/_150/cond_7/range_1", "shape": [4], "dtype": "int32"}, {"name": "PartitionedCall/cond_7/else/_150/cond_7/GatherV2_1/axis", "shape": [], "dtype": "int32"}, {"name": "PartitionedCall/cond_7/else/_150/cond_7/range", "shape": [4], "dtype": "int32"}, {"name": "PartitionedCall/cond_7/else/_150/cond_7/GatherV2/axis", "shape": [], "dtype": "int32"}, {"name": "PartitionedCall/cond_8/else/_159/cond_8/range_1", "shape": [4], "dtype": "int32"}, {"name": "PartitionedCall/cond_8/else/_159/cond_8/GatherV2_1/axis", "shape": [], "dtype": "int32"}, {"name": "PartitionedCall/cond_8/else/_159/cond_8/range", "shape": [4], "dtype": "int32"}, {"name": "PartitionedCall/cond_8/else/_159/cond_8/GatherV2/axis", "shape": [], "dtype": "int32"}, {"name": "PartitionedCall/cond_9/else/_168/cond_9/range_1", "shape": [4], "dtype": "int32"}, {"name": "PartitionedCall/cond_9/else/_168/cond_9/GatherV2_1/axis", "shape": [], "dtype": "int32"}, {"name": "PartitionedCall/cond_9/else/_168/cond_9/range", "shape": [4], "dtype": "int32"}, {"name": "PartitionedCall/cond_9/else/_168/cond_9/GatherV2/axis", "shape": [], "dtype": "int32"}, {"name": "PartitionedCall/cond_10/else/_177/cond_10/range_1", "shape": [4], "dtype": "int32"}, {"name": "PartitionedCall/cond_10/else/_177/cond_10/GatherV2_1/axis", "shape": [], "dtype": "int32"}, {"name": "PartitionedCall/cond_10/else/_177/cond_10/range", "shape": [4], "dtype": "int32"}, {"name": "PartitionedCall/cond_10/else/_177/cond_10/GatherV2/axis", "shape": [], "dtype": "int32"}, {"name": "PartitionedCall/cond_11/else/_186/cond_11/range_1", "shape": [4], "dtype": "int32"}, {"name": "PartitionedCall/cond_11/else/_186/cond_11/GatherV2_1/axis", "shape": [], "dtype": "int32"}, {"name": "PartitionedCall/cond_11/else/_186/cond_11/range", "shape": [4], "dtype": "int32"}, {"name": "PartitionedCall/cond_11/else/_186/cond_11/GatherV2/axis", "shape": [], "dtype": "int32"}, {"name": "PartitionedCall/cond_12/else/_195/cond_12/range_1", "shape": [4], "dtype": "int32"}, {"name": "PartitionedCall/cond_12/else/_195/cond_12/GatherV2_1/axis", "shape": [], "dtype": "int32"}, {"name": "PartitionedCall/cond_12/else/_195/cond_12/range", "shape": [4], "dtype": "int32"}, {"name": "PartitionedCall/cond_12/else/_195/cond_12/GatherV2/axis", "shape": [], "dtype": "int32"}, {"name": "PartitionedCall/cond_13/else/_204/cond_13/range_1", "shape": [4], "dtype": "int32"}, {"name": "PartitionedCall/cond_13/else/_204/cond_13/GatherV2_1/axis", "shape": [], "dtype": "int32"}, {"name": "PartitionedCall/cond_13/else/_204/cond_13/range", "shape": [4], "dtype": "int32"}, {"name": "PartitionedCall/cond_13/else/_204/cond_13/GatherV2/axis", "shape": [], "dtype": "int32"}, {"name": "PartitionedCall/cond_14/else/_213/cond_14/range_1", "shape": [4], "dtype": "int32"}, {"name": "PartitionedCall/cond_14/else/_213/cond_14/GatherV2_1/axis", "shape": [], "dtype": "int32"}, {"name": "PartitionedCall/cond_14/else/_213/cond_14/range", "shape": [4], "dtype": "int32"}, {"name": "PartitionedCall/cond_14/else/_213/cond_14/GatherV2/axis", "shape": [], "dtype": "int32"}, {"name": "PartitionedCall/cond_15/else/_222/cond_15/range_1", "shape": [4], "dtype": "int32"}, {"name": "PartitionedCall/cond_15/else/_222/cond_15/GatherV2_1/axis", "shape": [], "dtype": "int32"}, {"name": "PartitionedCall/cond_15/else/_222/cond_15/range", "shape": [4], "dtype": "int32"}, {"name": "PartitionedCall/cond_15/else/_222/cond_15/GatherV2/axis", "shape": [], "dtype": "int32"}, {"name": "PartitionedCall/cond_16/else/_231/cond_16/range_1", "shape": [4], "dtype": "int32"}, {"name": "PartitionedCall/cond_16/else/_231/cond_16/GatherV2_1/axis", "shape": [], "dtype": "int32"}, {"name": "PartitionedCall/cond_16/else/_231/cond_16/range", "shape": [4], "dtype": "int32"}, {"name": "PartitionedCall/cond_16/else/_231/cond_16/GatherV2/axis", "shape": [], "dtype": "int32"}, {"name": "PartitionedCall/cond_17/else/_240/cond_17/range_1", "shape": [4], "dtype": "int32"}, {"name": "PartitionedCall/cond_17/else/_240/cond_17/GatherV2_1/axis", "shape": [], "dtype": "int32"}, {"name": "PartitionedCall/cond_17/else/_240/cond_17/range", "shape": [4], "dtype": "int32"}, {"name": "PartitionedCall/cond_17/else/_240/cond_17/GatherV2/axis", "shape": [], "dtype": "int32"}, {"name": "PartitionedCall/cond_18/else/_249/cond_18/range_1", "shape": [4], "dtype": "int32"}, {"name": "PartitionedCall/cond_18/else/_249/cond_18/GatherV2_1/axis", "shape": [], "dtype": "int32"}, {"name": "PartitionedCall/cond_18/else/_249/cond_18/range", "shape": [4], "dtype": "int32"}, {"name": "PartitionedCall/cond_18/else/_249/cond_18/GatherV2/axis", "shape": [], "dtype": "int32"}, {"name": "PartitionedCall/cond_19/else/_258/cond_19/range_1", "shape": [4], "dtype": "int32"}, {"name": "PartitionedCall/cond_19/else/_258/cond_19/GatherV2_1/axis", "shape": [], "dtype": "int32"}, {"name": "PartitionedCall/cond_19/else/_258/cond_19/range", "shape": [4], "dtype": "int32"}, {"name": "PartitionedCall/cond_19/else/_258/cond_19/GatherV2/axis", "shape": [], "dtype": "int32"}]}]}